experiments/exp-20200629-10-01-38/weights/weights-0.pth (torch_old, 7195 bytes, 6 tensors)

fc_net.0.weight f4 [32, 8]
00000000: ed7f 343e a08d 033f 3038 17bc c0f3 e73e
00000010: fdb6 61bf c57e 9e3e 0311 96bf 4410 9d3e
00000020: 72c6 43bd 291b ec3e 418e 343f 9a56 ba3e
00000030: 9242 aebd a1ea 5dbd b6d6 ac3e ff89 fcbd
00000040: afc7 8fbf 0a32 5c3f f146 ab3e a3ae ec3e
00000050: 4607 6abe 3ac0 3dbe bb71 2bbf 1494 00bf
00000060: fe9a 9abd 4818 2dbf 7b57 6ebd b8ad 0dbf
00000070: 80f5 873d 38c1 33be 81ba 043f f564 033e
00000080: 7f53 09bf ba23 06bf 14bf e5be b1bb a93d
00000090: 2224 2fbe 12dc 3d3f 1ca7 fdbe ad85 46bf
000000a0: 2841 573e fe1a 803f 6db5 f03e a56e 123f
000000b0: e075 1ebf 57b2 05be e05e aabe c8eb 2abf
000000c0: 5475 543f 1ea9 68bf a390 3cbe 9f88 14bf
000000d0: e609 a8be 09df 3b3e 86ae 103f aaf1 193f
000000e0: 3a47 843f 84ad f2bc 5f33 b9be 132c 043f
000000f0: e241 9cbe 1d5f a23e ea14 683d ca2a d5be
00000100: 51f4 283f 0407 a9be a69e 3b3d af14 283f
00000110: e37f 04bf 288d 0ebe 34d3 b93d 8e61 563f
00000120: 9465 d93e c25c 343e 4269 1cbe 1e8e b03e
00000130: 2e92 223f 0fe6 bfbe 832e 18bf bd46 063f
00000140: da79 673f 2826 003f 4622 16bf c081 9a3e
00000150: 5ec2 403f 5a3a 89be ffb0 083f 95bc 313f
00000160: be47 04bf fd06 873f ea41 43bf 7497 edbd
00000170: 1452 65bf 6160 083f a63f d6be c09a e5be
00000180: f585 013e 9b71 0a3f 6983 073f 746f b93e
00000190: 0035 a8be e04c c2bd 0e77 863e cce7 03be
000001a0: 431e 2cbf 9270 f13e bd9a cbbe c100 a33e
000001b0: 736e 55bf f3ff b63e 1a56 25be bb15 673b
000001c0: 87a1 babf 1ce3 3dbd 3381 8abf f03f 03bf
000001d0: 36b3 03bf 4490 983e 8aac 10be ada9 56be
000001e0: c288 dd3e 8be4 473f 55f4 993e 011f 933f
000001f0: 4226 ae3e 6318 0b3e 9ef4 efbd 2ab3 11be
00000200: 2a31 873e d21a a6be 05fe 873c 6c5e 15bf
00000210: b9cc 0abf f1bb 353f 0e5d eebd 902f 1a3f
00000220: 1ebb a3bf 93e2 c6bf 27d5 35bf 5fe6 b9bf
00000230: 524f bdbe f472 9e3c 5663 95be 6287 debe
00000240: bad7 93be d2bd a63e 224b 4cbf bceb 893e
00000250: 77a2 e9bd 69c2 3dbf ce62 83bf 831d 943e
00000260: 1243 df3e 02d4 3abc 0be7 c63e d96e 78bf
00000270: 45fa cf3d acaf c2bd ff9d f1be aaa6 37bf
00000280: a8a3 94bd f6d2 13be ab92 d2bc 7405 193e
00000290: bca9 29bf 7c43 993f 86ef 573d 7648 eebe
000002a0: a5eb 73be c51e 6dbf e134 45bf 70fc a8bf
000002b0: 78ec 7fbf 193a a53e fc3a 4bbf 8c80 bbbe
000002c0: e2dc 513f 1d24 1c3f 15a5 eb3d 408b 6c3f
000002d0: d382 6e3e 7f75 ed3e 9f1e 16be 1a8c 95bd
000002e0: 978d c9bf 071c 343e 76a0 b5be 5493 853e
000002f0: 73bb 83bd a4fc 713e a4de 39bf b950 b83d
00000300: 5daa a33f f6d0 fcbe 890b 02bf dfc9 8e3f
00000310: 001f 6cbc 45c8 9fbd fadc b23e 2a67 de3e
00000320: 7eae 87bf f033 7e3e 328e da3d 3b0a 323f
00000330: 8807 bcbe 4990 503f 4c01 bebe 7589 d83e
00000340: 7227 ea3e dc32 303f 4b65 523e 3f81 483f
00000350: bf43 f7bd e366 153e 2b54 31bf 19d2 d4bd
00000360: 4f51 aa3e e0a1 6f3f e8a2 f13e bbad 7f3f
00000370: c667 933e 7c90 afbc de01 26be af15 433d
00000380: e053 8cbf 7e2f f4be 2e96 afbe d5f2 14bf
00000390: f4a0 44be 40d4 3d3f d976 09bf ac67 5e3b
000003a0: b814 ae3f 0192 05bf e7c9 9a3f 2de9 b9bf
000003b0: 7f32 c0be bc81 563d db6c 083e caf7 a33d
000003c0: 3933 d03e a4e3 99bf fbcc da3e 2277 dcbf
000003d0: f430 f53e 5384 febe 9c84 063e 5638 c8be
000003e0: cd3a 27bf 24eb a5bf c01c d63f 3e59 32be
000003f0: 57a6 073e 9556 debe 4a96 d4bd 1265 643e
0.17626925 0.5138798 -0.009229705 0.45303154 -0.8816984 0.30956092 -1.1723942 0.30676472
-0.047796674 0.46114472 0.7052956 0.36394197 -0.08508791 -0.054178838 0.3375756 -0.12331008
-1.1232814 0.86013854 0.33452561 0.46226987 -0.22854337 -0.1853036 -0.66970414 -0.5022595
-0.07549094 -0.67615175 -0.058188897 -0.553432 0.06638622 -0.17554176 0.5184708 0.12831481
-0.5364303 -0.52398264 -0.44872344 0.082877524 -0.17103627 0.74163926 -0.49541557 -0.77547723
0.21020949 1.0008237 0.47013417 0.5720008 -0.6189861 -0.13056313 -0.3327551 -0.66766024
0.8299153 -0.9088305 -0.1841455 -0.5802097 -0.32820052 0.183468 0.565163 0.60134375
1.0334237 -0.029623754 -0.36172006 0.5162975 -0.30519015 0.3171319 0.05666057 -0.41634208
0.659978 -0.33013165 0.045805596 0.6565656 -0.5175764 -0.13921034 0.09073487 0.83742607
0.4246031 0.1761351 -0.15274528 0.34483427 0.635043 -0.37480208 -0.5944597 0.5245169
0.90420306 0.5005822 -0.5864605 0.30177116 0.7529658 -0.2680233 0.53395075 0.6942838
-0.5167197 1.0549008 -0.7627245 -0.11601153 -0.89578366 0.5327206 -0.41845435 -0.44844627
0.12648757 0.540796 0.5293489 0.36217844 -0.32852936 -0.09487319 0.26262707 -0.12881392
-0.67233676 0.47156197 -0.39766493 0.31836513 -0.8337166 0.3574215 -0.16146126 0.0035260755
-1.4580544 -0.046359167 -1.0820678 -0.51269436 -0.5144533 0.29797566 -0.14128318 -0.20963164
0.432684 0.78083104 0.30069223 1.1493837 0.34013563 0.13583522 -0.11716579 -0.14228502
0.26404697 -0.32442337 0.016600618 -0.583472 -0.5421863 0.709899 -0.116388425 0.60228825
-1.2791479 -1.5537895 -0.7102837 -1.4523429 -0.3697458 0.019341923 -0.2917735 -0.43462664
-0.28875524 0.32566696 -0.79802144 0.26937664 -0.11407941 -0.7412477 -1.0264528 0.28928766
0.43605858 -0.011403086 0.38848147 -0.9704414 0.10155157 -0.09506163 -0.47190854 -0.71738684
-0.072577775 -0.14435944 -0.025704702 0.14943486 -0.6627462 1.197372 0.05271866 -0.46539658
-0.2382036 -0.92625076 -0.7703381 -1.3202038 -0.999702 0.32270887 -0.7938688 -0.3662151
0.81977665 0.60992604 0.11506096 0.9239998 0.23292093 0.46378705 -0.14660119 -0.07302113
-1.5746335 0.17588817 -0.35473984 0.26088965 -0.064322375 0.23631531 -0.7260535 0.089997716
1.2786366 -0.49378175 -0.5079885 1.1155356 -0.014411688 -0.0780187 0.34934217 0.43438083
-1.0600126 0.248245 0.10671653 0.6954686 -0.36724496 0.8147016 -0.37110364 0.4229237
0.4573322 0.68827605 0.20546453 0.78322214 -0.120734684 0.1459003 -0.69269055 -0.103916354
0.3326516 0.93606377 0.471946 0.99874467 0.2879011 -0.0214312 -0.1621165 0.0476281
-1.0963097 -0.47692484 -0.34294266 -0.5818303 -0.19202024 0.7415199 -0.5369697 0.0033936305
1.3600073 -0.5217591 1.2092866 -1.4524285 -0.37538525 0.052369818 0.13322775 0.080062464
0.4066408 -1.2022595 0.42734513 -1.7223856 0.4788891 -0.4971033 0.13136524 -0.3910548
-0.653241 -1.2962384 1.6727524 -0.17416856 0.13247047 -0.43425432 -0.10380228 0.2230418

fc_net.0.bias f4 [32]
00000000: f349 a53e 8566 b1bf de3e 37bf e3b8 7e3f
00000010: 3857 abbe 9134 1fbf 9358 8d3f 9485 aa3f
00000020: 52f3 903f 5d9e 913f c228 773f b3cf 2fbf
00000030: c1b2 f9bf 20ed 083f a65f 2bbe 29a6 683f
00000040: f172 3f3f 84bc c23e 1a12 443f 01ca 4dbf
00000050: 18c1 f33e 8243 43bf eda5 573f 032d bfbd
00000060: 4d15 1c3f 1965 1e3f 8d04 283e e5a9 593f
00000070: c43d 523f 8945 8bbf 67c3 8bbf e728 8fbd
0.3228298 -1.3859411 -0.715803 0.99500865 -0.3346498 -0.62189585 1.1042656 1.3322015
1.1324255 1.1376454 0.96546566 -0.686763 -1.9507676 0.53486824 -0.16735706 0.9087854
0.7478476 0.3803445 0.7659012 -0.8038636 0.47608256 -0.76274884 0.8423756 -0.09334757
0.6097 0.6187301 0.16407986 0.85024863 0.82125497 -1.0880595 -1.0919007 -0.069902234

fc_net.2.weight f4 [32, 32]
00000000: d843 dcbf 9cd8 0640 94b1 de3e 1a60 ff3e
00000010: 8471 233f 3ace d63f 12b6 9a3f 5efa d0bf
00000020: cb1a d6bf 0eb0 9ebf eb57 0a3f 79d4 0f40
00000030: 545a 3e40 0be1 8f3f 10ee a33f 781f e13e
00000040: 0916 69bf 8026 883f 0f09 3cbf 760e 8d3e
00000050: a11b 92bf 6da1 343f 8a83 2d3f 7145 8bbe
00000060: a8b4 b03e b687 273f 241c 593f 01b8 923f
00000070: c427 d53d 5bc0 5c40 092c c93f 0da2 483f
00000080: c30c 15be 0683 c63f 7e90 ed3e 0ef2 3d3f
00000090: f38c ab3e ff1f b53f e161 a53f 0954 1ec0
000000a0: 2d09 53bf 06b9 14bf 8de1 c3be 61e8 d73f
000000b0: 180c 2440 f57e 5e3f 3f4b 343f 8855 cd3e
000000c0: 28e5 44be 6414 823f 136d 47bd cd8a 1b3f
000000d0: aa4e e7bf eded 3e3f e8a9 f33e d520 21bd
000000e0: cf77 87be 412e 163f 94a7 143f 4225 1f3f
000000f0: e40b a53e c2bb 1f40 2fc6 a53f 8982 853f
00000100: a835 fe3e 8272 74bf c084 483e 41ac 17bf
00000110: 15e9 103e 56d6 dabe e311 b8bf 76bb 63bc
00000120: b054 753f d6c7 3e3f 529f e6be 7eab 023e
00000130: 7e1f 74bf 60fa e03e 8c73 843e 24e8 ccbe
00000140: f00e 093f 9588 823e b7e7 033f abb7 7a3e
00000150: ef11 22bf 40ab 96be cd12 25bf a162 d33d
00000160: 7eff bebe d005 173f d0f1 d1be ad11 09bf
00000170: 4a5c 5ebe 26e8 32bf 289f 4e3e 0a3b 36be
00000180: 9409 4dbb 7b87 b9be 9054 163f 4270 923f
00000190: 9a0e 543f 5beb 193f 9fbb 7d3f dc8c 0c3f
000001a0: 6977 80be 9f1e 1fbf 16c0 0bbf f2cd e33f
000001b0: 8e4f a33e c7b4 083f 96ee 343f f0f0 743f
000001c0: 0a39 81be 7396 df3f c63c 7f3e 8372 a13e
000001d0: 5b1e 2dbf 1c0f 4d3f 2eb1 203f b170 e43e
000001e0: a419 e13e 3e9a d03e cd99 073f c7bc 543f
000001f0: bae1 ab3f d859 6c3f b14e 3c3f fdb8 c43f
00000200: 372c 063e ddbd dd3f a26c dc3e 3003 003f
00000210: 17ca 903f 940b c13f e816 4d3f 2ff6 efbf
00000220: cdf3 e8bf 912d 99bf 2408 41bf 6783 2a40
00000230: c7ed 2e40 d5a5 573f 20a3 993e d32d eb3e
00000240: b501 30be 6d90 a63f 1003 d8be cc00 493f
00000250: 7a7a dfbf 6b69 0140 18a0 003f 0220 193e
00000260: af96 103e 85e5 333f 033e 053f 5b76 c43e
00000270: 5f3b 043f 25cb 3040 8f0f a53f b10c 723f
00000280: 2f88 9c3e 6915 c8be ce3d 33bf 7644 96bf
00000290: 5800 003f 7f47 8fbf ab6e d9bf dc4b e03e
000002a0: e2ed fc3e bf3c 39be 6ffc 0cbf 78f0 fc3e
000002b0: cac9 2abf 7e68 c6bc 11ee 013f f2f2 6abf
000002c0: 44cd 883f 6277 ef3d 53e0 40be e0da 1cbf
000002d0: 315c e03f 6cee 393f ff7e dbbe ddee 313e
000002e0: 2550 0dc0 509a fb3e e2df 4dbf 1618 51bf
000002f0: 31bf e13e 9ded 583e 6598 02be 0efd 16bf
00000300: 8ba6 17be b9d1 643f cd1d 203f 55e2 173f
00000310: 36a2 bf3e 453d b13f 3dd4 1e3f 885d 1ec0
00000320: f71a 6abf 41c3 32bf ea5e 38bf e4a9 e73f
00000330: 9aae eb3f bd3d 693f c266 3b3f c943 f33e
00000340: 4990 b8be 3f7e 803f f5bf 47be 4fe8 213f
00000350: d406 02c0 8026 1a3f d8c7 b63e 0be7 eb3e
00000360: f252 afbe db12 d03e ce8f 293f 67ec 283f
00000370: 2786 0e3f 58f8 1540 9753 bd3f 7856 873f
00000380: 69a6 ec3d 1d5b 313f 49de 843f bf22 143f
00000390: 4813 153f 272c a73f 0cea 403f 90ea 03c0
000003a0: 1f9e 77bf d6fc 4fbf 02ca f5be cd57 2340
000003b0: 283b bc3f aeb0 803f 584d 9e3f c73d 153f
000003c0: 7c4a a5be 7e7d c53f 7d3c f9bd a656 203f
000003d0: 0ac8 f0bf b2fd 843f 31c1 893e adc4 413f
000003e0: 6a3c 05bf f81d 203f 41c1 003f a5b8 643f
000003f0: 6c9e 5d3f 1e35 f03f 80e4 8b3f 2c5e 933f
-1.7208204 2.1069708 0.43494856 0.49878007 0.63845086 1.6781685 1.2086813 -1.6326406
-1.6726927 -1.2397478 0.540404 2.2473433 2.9742632 1.1240553 1.2807026 0.4396932
-0.9104925 1.0636749 -0.7345132 0.27550095 -1.1414682 0.70558816 0.6777884 -0.27201417
0.3451283 0.65441453 0.84808564 1.1462404 0.10407975 3.4492404 1.5716563 0.7837227
-0.1455565 1.5508735 0.463993 0.7419747 0.33505973 1.415039 1.2920495 -2.473879
-0.82435876 -0.58094823 -0.3825802 1.6867791 2.5632381 0.8691247 0.70427316 0.40104318
-0.19228041 1.0162473 -0.048688006 0.6075867 -1.8070881 0.74581796 0.47590566 -0.03933795
-0.26458594 0.5866433 0.58068204 0.62166226 0.32235634 2.4958348 1.2951106 1.0430461
0.4965031 -0.95487225 0.1958189 -0.59247214 0.14151414 -0.4274165 -1.4380459 -0.013899675
0.9583235 0.74523675 -0.45043427 0.12760732 -0.95360553 0.4394102 0.25869405 -0.4002086
0.5353842 0.2549483 0.51525444 0.24484126 -0.63308614 -0.29427528 -0.6448181 0.10321546
-0.373043 0.58993244 -0.410048 -0.53542596 -0.21714893 -0.6988548 0.20177901 -0.17795959
-0.0031286227 -0.36236176 0.5872278 1.1440508 0.8283478 0.6012475 0.9911441 0.54902434
-0.25091103 -0.621561 -0.54589975 1.7797225 0.31896633 0.53400844 0.70676553 0.9568014
-0.2523883 1.7467788 0.24925527 0.31532678 -0.67624444 0.8010118 0.62770355 0.44617227
0.43964875 0.40742677 0.52969056 0.8310055 1.3428261 0.9232459 0.73557574 1.5368954
0.13102804 1.7323567 0.4305163 0.50004864 1.1311673 1.5081658 0.8011308 -1.8747004
-1.8199402 -1.1967031 -0.75403047 2.6642702 2.7332628 0.84237415 0.30007267 0.459334
-0.17188151 1.3012825 -0.42189837 0.7851684 -1.7459252 2.0220592 0.50244284 0.14953616
0.14119981 0.70272094 0.5204775 0.38371548 0.51653093 2.762399 1.2895373 0.94550616
0.3057265 -0.39078835 -0.7001618 -1.1739643 0.50000525 -1.1193694 -1.6986898 0.43807876
0.4940024 -0.18089579 -0.55072683 0.49402213 -0.66714156 -0.024219748 0.50753886 -0.91776955
1.0687642 0.11692692 -0.18835573 -0.61271477 1.7528135 0.7262943 -0.42870328 0.17376275
-2.2080166 0.4914117 -0.80419743 -0.8167738 0.4409118 0.21184392 -0.12753446 -0.5897988
-0.14809625 0.8938251 0.6254547 0.5932973 0.37428445 1.3846823 0.620426 -2.4744587
-0.91447395 -0.69829184 -0.7201983 1.8098722 1.8412659 0.9110983 0.7320367 0.47512653
-0.3604758 1.0038527 -0.1950682 0.632451 -2.0316668 0.60214996 0.35699344 0.4607471
-0.3424297 0.40639386 0.66235054 0.6598572 0.5567345 2.3432827 1.4791135 1.0573263
0.11555178 0.6927965 1.0380336 0.5786552 0.58232546 1.3060349 0.7535713 -2.0611916
-0.9672565 -0.8124517 -0.48005682 2.552234 1.4705553 1.0053918 1.2367353 0.5829739
-0.3228339 1.5428922 -0.1216974 0.62632215 -1.8811047 1.0389922 0.26905206 0.7569073
-0.5204531 0.6254573 0.5029488 0.89344245 0.8656986 1.876621 1.0929108 1.1513114

fc_net.2.bias f4 [32]
00000000: 2193 28c0 a838 a2bf 503a e33e fe91 133f
00000010: 39ea 2bc0 7bff 2ebc 9db7 a2bf d14f 65bf
00000020: bb1a f8be 7d1e a13d 9b98 89be 8476 c5be
00000030: 8f6b 513f 1c03 19bf 2bfa 9d3e 659d be3e
00000040: 6b9e ee3e 6291 d4bf 9ac2 2abf c502 e9bd
00000050: adc6 c63d d66b 11bd 2159 063e 6f48 debf
00000060: 0184 06bf 45e4 d4be 10ac 183e 7b64 ab3e
00000070: c75d 45be bbe2 c0be eaa0 0f3f 9994 b03d
-2.63398 -1.267354 0.44380426 0.5764464 -2.6861708 -0.0106810285 -1.2712284 -0.89574915
-0.48457894 0.07867143 -0.2687424 -0.38566983 0.81804746 -0.5977037 0.30854926 0.37229457
0.46605238 -1.6606867 -0.6670319 -0.11377481 0.09705863 -0.03550323 0.13119937 -1.7365855
-0.5254517 -0.41580406 0.14909387 0.33475098 -0.19274054 -0.37672982 0.5610491 0.08622093

action_head.weight f4 [5, 32]
00000000: 1904 c7bf 492e 4abf d4f8 a53f 5f77 5fbf
00000010: a1a8 b0bf 5163 0340 f642 80bf dac4 8ebf
00000020: ac0d 75bf 45b8 ce3f 5682 ee3f 0c88 81bf
00000030: 01dc 993f 5ee8 59bf d1f6 58bf c9ff 793f
00000040: 1a59 5fbf 5630 76bf 2547 82bf 3f49 67bf
00000050: 7a76 ac3f 8546 f43f 8b47 6bbf 05fc 95bf
00000060: 4676 87bf 8976 a13f 8b44 b33f 3aef a43f
00000070: a65c 7fbf 0282 89bf 4180 c43f 9b4d ab3f
00000080: edf1 dabf e21c 61bf a207 843f fbba 88bf
00000090: 8b26 9cbf 955d 0240 b252 9ebf e44d a2bf
000000a0: 8254 86bf ec96 d23f dbea bb3f 644e 44bf
000000b0: a321 bc3f 46dc 8abf 55d5 5dbf 8286 933f
000000c0: 72ad 6cbf 39f9 40bf 3b50 75bf ee9d 79bf
000000d0: 3a07 9e3f bd09 fb3f 6f7e 25bf c7c3 9cbf
000000e0: 3b0b 6abf 6724 4a3f 4fca 843f 13c5 b53f
000000f0: e922 48bf 390f 85bf f9c5 c23f c430 a23f
00000100: 51bf e0bf b03b 92bf 37d0 a83f 2284 3fbf
00000110: 8eb8 49bf 801e f03f 7201 77bf 00fa 2dbf
00000120: 4547 60bf 0653 b73f bb2f bd3f 0465 89bf
00000130: 199c 763f 4be0 41bf 81b3 7abf 310c 943f
00000140: 882e 37bf cff3 98bf f357 80bf a8ef 73bf
00000150: ba15 ab3f 3cd7 ee3f 224c 71bf c094 adbf
00000160: 0c37 67bf af60 e63f 50ee 883f c5dd be3f
00000170: 1839 81bf 1d24 82bf 38af 253f 5218 a53f
00000180: ab26 d2bf fa8f 8abf facf bd3f 594c 96bf
00000190: 6b70 99bf e606 0b40 2c42 82bf 0435 7cbf
000001a0: ba49 73bf 7eb8 be3f ccff db3f e38e 7dbf
000001b0: 800f 763f 7c1b 75bf 1999 79bf 059a 873f
000001c0: 1cfd 09bf 0a35 70bf 9dac 8ebf 8c8b 4bbf
000001d0: 6afa b23f 5e6b f53f 034f 45bf f921 8cbf
000001e0: 7392 83bf bdc1 983f 02e8 b73f 7012 8b3f
000001f0: 6816 8abf 0d15 80bf 8702 b03f f5a5 bc3f
00000200: b955 c9bf 17da 79bf b303 8c3f c42e 51bf
00000210: 01b5 adbf bff3 ea3f f41e 83bf 765b 7abf
00000220: cac7 7abf 7b73 d23f 09a1 dc3f dee3 6abf
00000230: 0669 a93f 8f0e 58bf a9c0 3bbf 15f8 8e3f
00000240: b4b8 8bbf feb4 84bf 9e41 2fbf 6b4b 88bf
00000250: b3f8 b43f 5b81 e13f 33fc 8cbf 120e 98bf
00000260: 9da4 82bf 8014 7a3f d82d ab3f 4344 b33f
00000270: 95e5 31bf d71b 90bf e98a e63f 3dcc 913f
-1.5548126 -0.78976876 1.2966561 -0.8729152 -1.3801461 2.0529368 -1.0020435 -1.1153824
-0.95723987 1.6149985 1.8633525 -1.0119643 1.2020265 -0.8512019 -0.8475161 0.9765592
-0.87245333 -0.96167505 -1.0177962 -0.9034614 1.3473656 1.9084021 -0.9190604 -1.1717535
-1.0582969 1.2614299 1.4005293 1.2885506 -0.99750745 -1.07428 1.535164 1.3383058
-1.710508 -0.87934697 1.0314829 -1.0682062 -1.2199262 2.0369618 -1.2368987 -1.268002
-1.049454 1.6452308 1.4681047 -0.76682115 1.4697765 -1.0848472 -0.86653644 1.1525424
-0.92452157 -0.75380284 -0.95825547 -0.97506607 1.2345955 1.9612347 -0.6464605 -1.2247247
-0.91423386 0.78961796 1.037424 1.4200767 -0.7817827 -1.039527 1.5216666 1.2671132
-1.7558385 -1.1424465 1.3188542 -0.74810994 -0.78797233 1.8759308 -0.9648658 -0.67959595
-0.8760875 1.4322212 1.4780191 -1.0733953 0.96331936 -0.7573287 -0.9793015 1.156622
-0.71555376 -1.1949404 -1.002684 -0.9528756 1.3366005 1.8659434 -0.94256794 -1.356102
-0.9031837 1.7998255 1.0697727 1.4911429 -1.0095549 -1.0167271 0.6472049 1.2898047
-1.641805 -1.0825188 1.4829094 -1.174205 -1.1987432 2.172296 -1.0176444 -0.98518395
-0.9503437 1.4900053 1.7187438 -0.9904615 0.961174 -0.9574506 -0.97499233 1.0593878
-0.5390184 -0.9383093 -1.1146427 -0.79509807 1.398267 1.9173391 -0.7707369 -1.0947868
-1.0279068 1.1934124 1.4367678 1.0865002 -1.0788088 -1.0006424 1.3750771 1.4738146
-1.5729285 -0.97598404 1.0938629 -0.81711984 -1.3570863 1.8355635 -1.0243821 -0.9779581
-0.97961104 1.6441492 1.7236644 -0.9175395 1.3235176 -0.84397215 -0.7334085 1.1169459
-1.0915742 -1.0367734 -0.684595 -1.0648016 1.4138397 1.7617601 -1.1014465 -1.1879294
-1.0206486 0.9768753 1.3373365 1.4005207 -0.6949094 -1.1258496 1.8011142 1.1390454

action_head.bias f4 [5]
00000000: b870 07be 4858 05be e8ac adbf bdff 89bf
00000010: 944e 273f
-0.13226593 -0.13021958 -1.3568392 -1.078117 0.65354276
