experiments/exp-20200629-10-01-38/weights/weights-2.pth (torch_old, 7451 bytes, 6 tensors)

fc_net.0.weight f4 [32, 10]
00000000: 2180 b93e 2d0a 3cbc 9807 7d3e d740 7bbb
00000010: 7f09 0ebe bd67 babe fe02 dabd c4cc 6e3e
00000020: bf11 23bf 03cc c73d 0f71 fbbd 3ddb a6be
00000030: 9a54 47be e590 e8be 3f89 e1bd 9a35 cbbe
00000040: 6c45 0abe 84a9 073e bcc3 ca3e ce6c a43f
00000050: 0a31 00bf 928a cfbe a516 06bf aeef 46bc
00000060: 709b 99be a5d8 59be 7c41 84be 3810 3a3e
00000070: e6a1 623d 396c c13d f625 9d3e dd6c 55bf
00000080: 3938 803c e50b 0cbe 67d0 3fbe cc21 b73d
00000090: 7316 1cbe d623 9e3d e33b d2bd f463 c03f
000000a0: 93ef 44be 6096 b83c 857c 9bbd c128 ddbe
000000b0: e6c5 15bf a883 73bf 0977 603e d511 3a3f
000000c0: bf1f 783f 53a5 c8be 25e7 fcbd 58e0 17be
000000d0: 7715 a5bd 8f30 d1be 5de7 bc3d a699 a5bd
000000e0: dbeb 613f b1ad ed3d 5d29 c2be 14da a23c
000000f0: 6eaf b4bd 4619 b2bd 0069 53bd 3bd0 7cbe
00000100: 1a69 d6be 41e5 02bf b160 b73e e6a3 3ebe
00000110: 87b5 0ebf f3ac ddbe 23bf ab3d a69d 4d3f
00000120: 137b eabd 970d 393f b512 f0bd a50f 093f
00000130: 4665 483f 05fe 64be d156 3fbd 8c9d e53e
00000140: d153 b63e 3485 a0be 9861 163e 9e8d 22bf
00000150: 9771 643d 058b cbbe 3f6b a83e c367 193f
00000160: 141c bcbe 4353 313f 8a6e 3fbe 4e40 e43e
00000170: 3ed7 66bd 8c01 da3e 433d 083e 8482 fd3d
00000180: f60d 47be a03c 18be 0144 a3be c1df 6abe
00000190: f88a 62be 43df d2be d0c6 8abd 6c37 cebe
000001a0: a405 2c3e ee25 2b3e 7891 443e da97 8fbd
000001b0: dc99 33bf fe43 e63e df46 02be 71e1 e2be
000001c0: 1f82 8ebe abb0 0bbf db94 b1be 7c58 11bf
000001d0: 8806 b93e 6fd4 5d3f 5382 0e3e 8367 103f
000001e0: 883d dabe 2aa7 d53d e37c 63be 9bee 5b3e
000001f0: 0a43 0abc f5c0 00be bd5c 7c3f b405 f8bd
00000200: b9f1 d6be 0085 afbe 5a53 b43e 59fb 60bf
00000210: 9196 f53e c107 bebe e447 803e e932 0e3f
00000220: 667b fdbe 7a3a 073f b8f7 cbbe e160 8c3f
00000230: f18d f3be a3d2 a43e 0b43 e4bd b571 dd3e
00000240: d159 76bd fb00 463f 0bed 03be b8aa 96bd
00000250: de02 d4be dda4 08be 758d 49be 470c 8a3f
00000260: 8f88 ee3e e7f2 e23e 9442 4d3e 0298 f33e
00000270: 69d2 ab3d 24f6 d13d 62cb f13d 4fa4 b6be
00000280: 0837 22bf 9f65 603e ff19 913c 016c 8d3e
00000290: 06cb 24be b472 953e 8217 6d3f bd84 03bf
000002a0: 7f51 1bbe 5ab2 353d f6a5 843d 025b d73e
000002b0: c97b 45be fab9 a03e 7e75 42be 0cb8 e4be
000002c0: 8b9f 713e cd80 5bbd 3c6d b63d e65b dfbe
000002d0: eab6 0bbd 938c d83e 4013 8b3e d4c2 5d3e
000002e0: 1817 1abf 35ff 5c3f bd65 24bf ac9d 943d
000002f0: 39d6 81be 4d68 dcbd b30c 9bbf 03bd e03e
00000300: fd4b b53e f762 043e 1bb3 34bf 9b25 98bd
00000310: 929d e93d af4f 2dbf a975 de3d c521 8ebd
00000320: 59b4 d9be 4ea7 8dbe 3035 c53e c7cc 4e3f
00000330: b72c 083f aef1 cbbe 25e9 bebe 2922 3cbe
00000340: 29eb 68bd cd3c 073f ae61 bdbe a68f 1f3f
00000350: 23e4 adbe 3026 b63d d8ba dabe 72cd 34be
00000360: 6cd6 6fbe a958 eb3e 4591 493e 492b 06be
00000370: 73af c93e b3bd b6be e101 d8bd b6d9 a0be
00000380: 899b dd3d b954 ad3d f44b 0abf 52f2 743f
00000390: abe8 383e 7ebd 9d3d c7b7 4a3e fa30 133f
000003a0: e24e 973d 8d30 e53e 2b38 8d3e 1ea1 73be
000003b0: 6513 28bf acd6 63bf 92be d63d 1924 f43d
000003c0: fbd7 9ebd 0596 e0be 15ef 65be ce44 27bf
000003d0: 2cbf 613e 7def c2bc e9a0 acbf c168 b23d
000003e0: 04bb fcbe c408 f53d c0ed c8be fc84 1a3f
000003f0: 7f16 c0be 2657 96be 44a4 42bf ae8f adbd
0.36230567 -0.0114770355 0.24709928 -0.0038338208 -0.1387081 -0.3640727 -0.10645102 0.233203
-0.63698953 0.09755709 -0.122774236 -0.3258914 -0.19465867 -0.45423046 -0.11012506 -0.39689332
-0.13503045 0.13248259 0.39602458 1.2845705 -0.5007483 -0.40535408 -0.523783 -0.012142105
-0.30001402 -0.2127405 -0.2583121 0.1817025 0.05533018 0.0944447 0.30693024 -0.8336924
0.015651809 -0.13676412 -0.18731843 0.08941993 -0.15242939 0.07721679 -0.10265329 1.5030503
-0.19232015 0.022532642 -0.075921096 -0.43195155 -0.58505094 -0.95122766 0.21920408 0.7268346
0.9692344 -0.39188632 -0.12348775 -0.14831674 -0.08060735 -0.4085736 0.092238165 -0.08085947
0.8825051 0.11605395 -0.37922183 0.019879378 -0.08822523 -0.08696227 -0.051613808 -0.24688809
-0.4187706 -0.51131064 0.35815957 -0.1861721 -0.5574574 -0.43296012 0.08386066 0.8031868
-0.11449256 0.7228636 -0.11722318 0.53539497 0.7827953 -0.22362526 -0.046713654 0.4484676
0.35610822 -0.31351626 0.14685667 -0.6349734 0.05577239 -0.397545 0.32894322 0.5992395
-0.36740172 0.6926767 -0.18694511 0.4458031 -0.056357615 0.42579305 0.1330462 0.123784095
-0.1943892 -0.14866877 -0.3188782 -0.22936918 -0.22123325 -0.4118596 -0.06776202 -0.4027666
0.16799027 0.16713688 0.19196117 -0.07011385 -0.70156646 0.4497375 -0.12722348 -0.44312623
-0.2783365 -0.5456645 -0.3468388 -0.5677564 0.36137795 0.8665227 0.13916902 0.56407946
-0.4262507 0.10432275 -0.22215609 0.2147774 -0.008438835 -0.12573607 0.9857901 -0.12110463
-0.41981295 -0.34281158 0.35219842 -0.87883526 0.47966436 -0.3711529 0.25054848 0.5554643
-0.49508208 0.52823603 -0.39837432 1.0967065 -0.4756923 0.32191953 -0.111456 0.43250814
-0.06014425 0.77345246 -0.12883393 -0.07356781 -0.41408437 -0.1334414 -0.19682868 1.0784997
0.4658856 0.44325945 0.20044929 0.4757691 0.08389742 0.10252026 0.1180637 -0.35672233
-0.6336522 0.21913765 0.017712591 0.27621463 -0.16093072 0.29189074 0.92613995 -0.5137442
-0.15167807 0.044359542 0.06476967 0.4206162 -0.19285502 0.3139189 -0.18990132 -0.44671667
0.23596017 -0.05358963 0.089075536 -0.436248 -0.034109987 0.4229475 0.27163124 0.21656352
-0.6019149 0.86326915 -0.6421774 0.07256636 -0.2535875 -0.10762081 -1.211325 0.43894204
0.35409537 0.12928377 -0.70585793 -0.07429048 0.11407007 -0.6769971 0.10862286 -0.06940035
-0.42520407 -0.27666706 0.3851714 0.80781215 0.5319323 -0.39832824 -0.3728725 -0.18372406
-0.05686489 0.5282715 -0.36988586 0.62328565 -0.33963117 0.088940024 -0.42720675 -0.17656496
-0.23421639 0.4596608 0.19684322 -0.1310245 0.3939167 -0.35691604 -0.105472334 -0.314161
0.108206816 0.08463425 -0.54022145 0.9568225 0.18057506 0.077021584 0.19796668 0.5749661
0.073880926 0.44763604 0.27581915 -0.2379193 -0.65654594 -0.8899944 0.10485567 0.119209476
-0.07756039 -0.43864456 -0.22454484 -0.6533936 0.22045583 -0.023795838 -1.3486606 0.087113865
-0.49361432 0.119645625 -0.3924389 0.6035917 -0.37517163 -0.29363364 -0.760319 -0.0847467

fc_net.0.bias f4 [32]
00000000: 3b24 e6be b2f7 933d d8a5 d0be 3c17 afbe
00000010: f4c9 86be 1de8 ce3e 6b10 b13e 6fbe 053d
00000020: 7461 853e de31 3bbf 6e16 05bf c6c1 efbe
00000030: f8a9 e03e a41b 143f 3784 fbbb 8c95 26bf
00000040: 82c6 1fbe 4d5e 3abe 83e6 94bd f367 c53e
00000050: 74f6 53bf 1c0a 06bf 272d 3cbe ca1c 58be
00000060: f945 54bf 7e55 233f f515 3d3e 792c 63bf
00000070: 2ac5 57be 39b5 93be b559 15be b06b 91bf
-0.44949517 0.072249785 -0.4075153 -0.34197414 -0.26325953 0.40411463 0.34582838 0.032652315
0.26050913 -0.73122966 -0.5198735 -0.46827525 0.43879676 0.57854676 -0.0076756733 -0.6507194
-0.15603068 -0.18200035 -0.07270529 0.3855587 -0.8279793 -0.52359176 -0.18376599 -0.21104732
-0.8291927 0.63802326 0.18465407 -0.88739735 -0.21071306 -0.288492 -0.14585002 -1.1360989

fc_net.2.weight f4 [32, 32]
00000000: 1d68 b93e 2eeb e6be 8544 303e fff5 0a3f
00000010: 0106 293d c4f5 c13e b1be 1e3f af73 35bd
00000020: 7d17 87be 5288 513e c1f6 2dbf ffe8 d5bf
00000030: 190f ba3e da5d 593e 1efe e6bd 8803 fc3e
00000040: a142 e7be e2ee 8f3f 5a1a d73e 736d c6be
00000050: 00f1 f73d fdf3 373f 8d99 5abf 4b0f 25bf
00000060: 273a 11be 1dfe c7bd 12b2 d9be 3a95 09be
00000070: 7095 debe 6f28 4f3d 96ac 5cbe 72c7 603e
00000080: b012 eabd be15 a73f c154 8d3e 9193 473f
00000090: 41e8 a73e 9163 19bf 0c95 eb3e 538a a1be
000000a0: 792f d3be 2a11 2cbe e809 b8be 5ce6 b2be
000000b0: e06b 61bf cbcd 6a3e 6437 473a a66f 84be
000000c0: 2ea3 8ebf 5420 913f aa4f 1dbe abde 823d
000000d0: 8df3 d6bd 34b4 9b3e 4c95 b6bf cfbc e6bf
000000e0: 6ee5 f3bd bf48 013e 4164 52bf 1a71 da3e
000000f0: 5ed4 65bf 9c30 f53b a360 32bd 2816 ad3e
00000100: a8f2 c0be 9525 cebe fe35 60bf d975 1ebf
00000110: 0274 933e 63cc 8cbd 78b1 7fbc 1f07 103f
00000120: 5a7c d83e 7031 d7be 4fd4 25be d74d 9ebe
00000130: 89b0 983e d9d3 6a3f 4adf 4ebf 02b4 0dbf
00000140: ae69 153f fc2a 243f d826 7dbf 7107 833f
00000150: 5487 6abe 6644 cebe 8a76 983e 3fd5 423f
00000160: b334 3dbf e718 f43e 042f 323e 5e5f eebb
00000170: 5e7b 6c3f ccf6 96bf 52bc 40be 56fd 04be
00000180: a295 103f 049d f43f adda b23d e3be 703f
00000190: 6254 d83e e7c3 94bf df48 543d f205 34bf
000001a0: 4cb6 4ebf 5ba5 5c3e eb31 75be 1d5b a43e
000001b0: 3394 5ebf b14e 5dbf e955 84bd 0896 ca3e
000001c0: cac9 2bbf b09a 5e3f e320 11bf e9a7 e43c
000001d0: 801b 043f 4443 183f b244 213e ced3 b6bf
000001e0: d3e6 47be 1ee1 a33e 6698 fcbe bfde 4b3f
000001f0: 7bf5 dbbe cae2 9d3e c397 103d 3829 173f
00000200: e9d3 31bf 04b5 8bbf 269d 88be c5f4 1abf
00000210: 0c3b 78bd 86cc 333f f409 5f3e 587d b93e
00000220: dda7 463f 2154 f0be 5577 fe3d d33d d13d
00000230: 762d b53e 093a 843f 728f 14bf e83d 1fbf
00000240: b993 813e a58e 42bf 2002 1cbe 3b82 7c3e
00000250: 6333 10bf 9d53 29bf 149f 213f 61b4 9a3f
00000260: 80d8 313e 5cbc 25bd 5b39 183f 5588 59bf
00000270: 1946 7a3f ee71 30bc dba7 923e 658f 5cbd
00000280: 04ef 8a3e 35c9 9d3f feae d33d adac 023f
00000290: 7a4a e6bd 6e47 103e ad7c a93e b2fd 373e
000002a0: a1f9 ef3d 45cb 38be 8544 12be 5bcb 61bf
000002b0: 6022 16be 9a13 2dbe 6048 303e 5cd9 98be
000002c0: 1e6c e8be 7834 a13d 1184 3bbe f477 cebe
000002d0: 927e aebe c608 093f 53ae 89bf 3abc 9bbe
000002e0: 4921 2abe 675a 4abe d195 c3be 0e2b 1dbe
000002f0: 9cba 19bf 2a2c a33e 53d6 e7bd 1260 f83c
00000300: 588b ec3e 48d7 d83f 4f96 a03e e1d2 693f
00000310: aa17 c73e 46b3 8ebf 33d9 08bd ae6c 38bf
00000320: cbd2 2ebf 463f 0d3e e233 a5be 2b82 003e
00000330: 0808 77bf 7d1d 49bf 955b a73d 6d1f 9d3e
00000340: f7d9 5bbf 2bbe 913f fac8 fabe d783 3d3e
00000350: 31da 0d3f 335c c33e db9b 113d 6229 bdbf
00000360: 233c f2bd 8605 243e d8af a7be 7724 943f
00000370: 153f 22bf ee4c 453e d5f8 9c3d ff7c e23e
00000380: 2fbd 7b3d 70fb 323f 07ee f3bd 0b15 903f
00000390: 0028 0fbf b54d 1d3f 3279 803c 7830 48bd
000003a0: 0fe1 90be 6794 c8be 7cec 1bbf a0c3 7dbf
000003b0: daf7 853e 4d8f 073f 667e 2bbe 2ad8 2ebf
000003c0: 092b 553e 8851 26bf f832 9d3e 8049 86bf
000003d0: 999c 8abe fb4f 86be ad28 98bf 3891 27bf
000003e0: d0a6 77bf 7cac 97be 4d77 a5be 17c2 13bf
000003f0: 586e 7cbf 3914 e93d e1f2 41bf 93aa 79be
0.36212245 -0.45101303 0.17213638 0.5428161 0.04126549 0.37882817 0.6200972 -0.044299778
-0.26385108 0.20462158 -0.6795464 -1.671173 0.36339644 0.21227208 -0.11278938 0.49221444
-0.4516802 1.1244776 0.42012292 -0.38755378 0.12106514 0.7185667 -0.8539055 -0.6447646
-0.1418234 -0.09765265 -0.4251867 -0.13435832 -0.43473387 0.05057567 -0.21550211 0.21951082
-0.114293456 1.305351 0.27603725 0.77959543 0.32794383 -0.5991755 0.4601215 -0.31550846
-0.41247156 -0.16803423 -0.35945058 -0.34941375 -0.8805523 0.22930066 0.00075995014 -0.2586643
-1.1143548 1.1337991 -0.1536242 0.06390127 -0.104956724 0.30410922 -1.4264312 -1.802637
-0.119089946 0.12625407 -0.82184225 0.42664415 -0.8977717 0.0074826013 -0.04354919 0.33805966
-0.37685132 -0.40263048 -0.87582386 -0.6189857 0.28799444 -0.06874921 -0.015606277 0.56260866
0.42282373 -0.42029905 -0.1619427 -0.30918762 0.29822186 0.91729504 -0.8080946 -0.55352795
0.5836438 0.6412809 -0.98887396 1.0236646 -0.22903186 -0.4028656 0.29777938 0.7610664
-0.7390854 0.4767525 0.17400748 -0.0072745522 0.92375743 -1.1794066 -0.18821838 -0.12987265
0.5647832 1.9110417 0.08733115 0.9404127 0.4225188 -1.1622285 0.051827308 -0.7032157
-0.8074691 0.21547453 -0.23944823 0.32100764 -0.86944884 -0.864482 -0.064616986 0.3956759
-0.6710478 0.86954784 -0.56690806 0.027912097 0.5160446 0.5947764 0.15748861 -1.4283388
-0.19521646 0.32007688 -0.4933502 0.7963676 -0.42960724 0.3083709 0.03530098 0.5904727
-0.69463974 -1.0914617 -0.26682395 -0.6052974 -0.060603186 0.70233953 0.2178114 0.36228442
0.7759989 -0.46939185 0.124251045 0.1021687 0.35386246 1.0330211 -0.5803138 -0.62203836
0.25308016 -0.7599891 -0.15235186 0.24659054 -0.5632841 -0.6614321 0.6313336 1.2086297
0.17367744 -0.040462837 0.5946252 -0.8497365 0.9776321 -0.01076935 0.2864369 -0.05384769
0.2713548 1.2327029 0.103361115 0.5104473 -0.11244674 0.14089748 0.33102933 0.17967871
0.11717535 -0.18046291 -0.1428395 -0.8820092 -0.1466155 -0.16902009 0.17215109 -0.29853332
-0.45394987 0.07871336 -0.18312098 -0.40325892 -0.3408094 0.5352901 -1.0756325 -0.30417043
-0.1661426 -0.19761048 -0.38200238 -0.15348455 -0.6005037 0.31869632 -0.11320176 0.030319247
0.4620006 1.6940699 0.31364676 0.913374 0.38885242 -1.114846 -0.033410262 -0.7204083
-0.68290395 0.13793668 -0.32266146 0.12549655 -0.9649663 -0.7856062 0.08171765 0.30688038
-0.8587946 1.138616 -0.48981458 0.18507324 0.5541106 0.3815628 0.035549026 -1.4778254
-0.118278764 0.16017732 -0.32751346 1.1573628 -0.63377506 0.19267628 0.076646484 0.4423599
0.061459716 0.69914913 -0.119106345 1.1256422 -0.5592041 0.61446697 0.01568279 -0.04887435
-0.28296706 -0.39175722 -0.6090772 -0.99126625 0.26165658 0.52953035 -0.16747436 -0.6829859
0.20817198 -0.64968157 0.3070295 -1.049118 -0.270726 -0.26232895 -1.1887413 -0.6545596
-0.9673891 -0.29623783 -0.32317582 -0.5771803 -0.9860587 0.1138081 -0.7576123 -0.24381475

fc_net.2.bias f4 [32]
00000000: 6f12 d03c 30e0 803e a7f2 a53e 32ac dbbe
00000010: 3a80 0e3f 7bf5 a83e 6fef 2ebf 13a3 153e
00000020: 6ab2 7f3e b930 3c3f e173 233e e7f4 1c3e
00000030: 3a1d 143f 7528 6dbe f31f 223e d248 3e3f
00000040: 7cc2 52bc 8370 913e ecc5 4fbe 19fa 723e
00000050: 144f 333e 3307 f83e 2498 193f 7b9e 683e
00000060: e8d4 7ebd 7267 ec3e 7866 b23e 5214 183f
00000070: 4e6e 063d 0a45 d73d c93b 123e a58c 0a3f
0.025399415 0.2517104 0.32411692 -0.42904812 0.5566441 0.32999787 -0.68334097 0.14612989
0.24970403 0.73511845 0.15962173 0.15327798 0.57857096 -0.23159964 0.158325 0.74329865
-0.0128637515 0.28406152 -0.20290345 0.23728217 0.17510635 0.48442993 0.59997773 0.22716706
-0.062214762 0.46172673 0.34843802 0.59406006 0.03282004 0.10511215 0.14280619 0.54120857

action_head.weight f4 [5, 32]
00000000: 3311 8ebf ff00 96bf cff5 513f a2ba b0bf
00000010: 5df4 6c3f 360e 67bf dfb7 80bf a0ae 5abf
00000020: 11a4 79bf 3881 153f 9b72 8abf 2ef5 8cbf
00000030: d39f 283f 60f8 3dbf e3fd a1bf 383c 5f3f
00000040: 8031 23bf 1ab9 b2bf 8740 b1bf 10cb 4b3f
00000050: ebd5 8ebf 97c2 453f de60 4d3f e1f4 86bf
00000060: 7f48 4ebf 1e69 6a3f 0799 213f adb6 4a3f
00000070: 3a1d a6bf 6d57 89bf cea7 0d3f a3bb 403f
00000080: 6096 86bf 5605 a1bf fc31 6a3f 6e7e aabf
00000090: e5fe 6b3f f953 5abf 8393 84bf 6ea3 67bf
000000a0: ac06 7dbf 06c2 293f 0cf1 85bf e7c5 22bf
000000b0: 7861 fa3e 60d5 1fbf 3439 82bf 547b 433f
000000c0: 861f 12bf 4e41 96bf 4434 bcbf 85bd 503f
000000d0: 19d2 a9bf ba6d 1c3f 1467 403f a414 37bf
000000e0: b693 6ebf 1ad9 3d3f 1a27 603f 5694 2a3f
000000f0: 2f94 b5bf 415c 89bf fb15 0b3f a0aa 5b3f
00000100: a474 73bf bec7 77bf 321f 263f e34b b6bf
00000110: f01a 843f 9299 7bbf 8d23 86bf cde5 85bf
00000120: 572a 8bbf 5907 833f 288d a0bf 39b7 babf
00000130: 0560 843f df6c 3dbf 1726 91bf 47bd 843f
00000140: e8fc 52bf 0485 d8bf 8dfe 91bf 232d 723f
00000150: 14ef 67bf 9a3e 2c3f 1c22 e43e d8b9 79bf
00000160: 92dc 5ebf 5972 1d3f f53a 553f 62ae 3a3f
00000170: 93f2 86bf 4bbd 83bf baab 143f 93f7 f63e
00000180: 69b6 93bf 5808 93bf 0463 613f 8be1 abbf
00000190: 31b5 6f3f 41f1 69bf ab9d 7fbf 2d13 8abf
000001a0: 813f 86bf ed66 483f 17bf 8abf 81cb 58bf
000001b0: 0139 113f 0e29 2bbf 9753 97bf 126c 3e3f
000001c0: 1860 05bf ecdd a6bf 7ad8 b6bf 5045 633f
000001d0: e023 8fbf fc74 513f 5a7a 4d3f 0bbe 6ebf
000001e0: 1ee5 6ebf 7dce 533f 77fc 413f e387 503f
000001f0: 90af 99bf cf06 a4bf be25 003f 8e8c 163f
00000200: e472 78bf 8334 95bf a856 5d3f e14f babf
00000210: 3336 653f bde4 9cbf b13c 69bf fd6d 33bf
00000220: 1074 52bf 5359 1e3f 06e5 7bbf ced6 8cbf
00000230: 821f 413f 13dd 29bf a7c9 7bbf 83bd 453f
00000240: 405a 62bf 6d18 adbf 35e0 babf ef90 6e3f
00000250: 3e6d 9bbf 2f67 373f 49a6 353f b936 82bf
00000260: 79a3 79bf 5d85 573f 47ff 1d3f d142 2f3f
00000270: dc77 93bf 3b0c 4ebf 41f1 273f d8aa 413f
-1.1098999 -1.1719054 0.820157 -1.3806956 0.9256037 -0.9025606 -1.0056113 -0.85422707
-0.9751597 0.584003 -1.0816225 -1.1012323 0.6586887 -0.74207115 -1.2655605 0.8720126
-0.63747406 -1.3962739 -1.3847817 0.79606724 -1.1159033 0.77250046 0.8022593 -1.0543481
-0.8057937 0.91566646 0.63124126 0.7918499 -1.2977669 -1.0729805 0.55334175 0.7528631
-1.0514641 -1.2579753 0.9148252 -1.3319833 0.92185813 -0.8528438 -1.0357517 -0.9048375
-0.98838305 0.6631168 -1.0464187 -0.63583225 0.48902488 -0.6243496 -1.0173707 0.7636006
-0.5707935 -1.173868 -1.470345 0.81539184 -1.3267242 0.6110493 0.75157285 -0.7151587
-0.9319414 0.74159396 0.87559664 0.6663259 -1.4185847 -1.0731279 0.54330415 0.8580723
-0.95099854 -0.9678916 0.6489135 -1.4241909 1.0320721 -0.98281205 -1.0479599 -1.0460755
-1.0872296 1.0236617 -1.2543077 -1.4587165 1.0341803 -0.7399425 -1.1339749 1.0370263
-0.82417154 -1.6915593 -1.1405808 0.94600123 -0.9059918 0.6728302 0.44557273 -0.975492
-0.87055314 0.61502606 0.83293086 0.7292234 -1.0542778 -1.0292143 0.58074534 0.4823576
-1.1540042 -1.1486921 0.8804171 -1.3428205 0.9363585 -0.9138375 -0.9984996 -1.0787102
-1.048813 0.7828205 -1.0839566 -0.8468552 0.56727606 -0.6685952 -1.1822385 0.7438365
-0.5209975 -1.3036475 -1.4284813 0.8877764 -1.1182823 0.8181913 0.8026482 -0.9325873
-0.93318355 0.8273695 0.75775856 0.81457347 -1.2006702 -1.2814578 0.5005759 0.5880822
-0.9705031 -1.165665 0.8646035 -1.4555627 0.89535826 -1.2257305 -0.9110823 -0.70089704
-0.8220835 0.6185505 -0.9839634 -1.1003053 0.754387 -0.6635296 -0.9835457 0.77242297
-0.8841896 -1.3523079 -1.4599673 0.931899 -1.2142713 0.7164182 0.70956856 -1.017295
-0.97515064 0.8418787 0.6171765 0.6846133 -1.1520953 -0.8048741 0.656025 0.7565131

action_head.bias f4 [5]
00000000: ad20 723e 2621 fe3c 0473 e83e 3e95 d43e
00000010: 7e5f 2c3e
0.23645277 0.031021666 0.4540025 0.41520113 0.16833302
