experiments/exp-20200629-10-01-38/weights/weights-1.pth (torch_old, 7451 bytes, 6 tensors)

fc_net.0.weight f4 [32, 10]
000000 f9 fe 43 3f f4 5d 3e 3e d4 e1 02 3f b6 e3 5a 3d
       0.7656093 0.18590528 0.51125836 0.05343982
000010 37 2c 37 3d ac c3 a1 be 77 d0 a1 3e 15 02 85 3e
       0.0447199 -0.31594598 0.3160436 0.2597815
000020 c3 b0 76 3e ec ae 5e 3e d7 7a 8f 3e fe fc c1 be
       0.24090867 0.21746415 0.28023407 -0.3788833
000030 46 96 39 be 73 69 04 bf 60 fd 9f be 17 c9 9e be
       -0.18123731 -0.517234 -0.31247997 -0.31012794
000040 bf 5d a4 3e 8f 9b c7 3e 02 c8 32 3f ff 04 5b 3f
       0.32102773 0.3898587 0.6983644 0.855545
000050 67 26 6a bf 7e f2 15 bf c4 15 0b bf 6d 77 4a be
       -0.9146485 -0.5857314 -0.54330087 -0.1977212
000060 a0 8f 28 be 1f f1 e8 be e2 39 26 bf 16 d4 de be
       -0.16461039 -0.4549646 -0.6493207 -0.43521184
000070 f1 33 a7 3e 6c d1 63 be 79 fb ef 3d 00 e3 2d bf
       0.32656816 -0.22247857 0.117178865 -0.679245
000080 24 d3 ff 3d 0c 5e aa be 4f 42 1c bf 11 ad da 3e
       0.12491444 -0.33274877 -0.6103868 0.42710164
000090 61 3c 47 bc 6a 4a 8e be 46 2e ba 3d ce b6 84 bf
       -0.012160392 -0.27791148 0.09090857 -1.0368288
0000a0 8a d0 b0 be 70 e1 1c 3f 15 28 3d 3f 44 8e 09 3f
       -0.34534103 0.6128149 0.73889285 0.53732705
0000b0 3d d5 f9 be 54 a2 03 bf 98 1e ae 3e 77 b2 a4 be
       -0.487955 -0.5141957 0.34007716 -0.32167408
0000c0 80 e1 ae 3e 48 c5 e8 3d 12 0f a0 be 75 63 bd 3e
       0.34156418 0.113657534 -0.31261498 0.36989942
0000d0 e0 ce 97 be c0 95 64 3e 74 6e a2 3d 1b 14 43 be
       -0.2965002 0.2232275 0.079312235 -0.19050638
0000e0 1e b1 65 3f 26 2c 87 be e7 68 c0 be ed 08 b4 3e
       0.89723384 -0.2640087 -0.37580034 0.3516306
0000f0 10 3c 92 3e 8c 04 1e 3c 60 2d 78 3d fb 6d 14 bf
       0.2856145 0.009644639 0.060590148 -0.57980317
000100 f5 dd e8 be f2 96 05 bf be f1 2d bd a9 c2 40 bf
       -0.4548184 -0.5218345 -0.04246687 -0.7529703
000110 5c 99 03 be 41 83 9a 3e c3 65 1e bf 1c 48 df be
       -0.1285147 0.30178264 -0.61874026 -0.43609703
000120 61 10 02 bf 0e 7d 28 bf 49 cf af bd e3 fc 80 3e
       -0.5080624 -0.6581582 -0.085844584 0.25192937
000130 38 eb 96 3f 2f 4d e5 3e ac ef 93 be e3 ed 8e 3e
       1.1790533 0.4478545 -0.28893793 0.27915868
000140 7d 19 36 3f af 51 f2 be 75 64 73 3e 20 8a 2a bf
       0.7113264 -0.47327945 0.2376879 -0.6661701
000150 04 e3 50 3e c1 74 23 be a6 4f 1b bf 8f 38 32 3f
       0.203991 -0.15962507 -0.6066841 0.6961755
000160 3e 26 39 bd 3b 40 37 bd a3 9f bd 3e ac ca f5 3e
       -0.045202486 -0.04473899 0.37035856 0.4800619
000170 8e 97 97 3e 87 e8 1b 3f f6 c4 14 3f 3f 20 87 3e
       0.29607815 0.60901684 0.5811304 0.2639179
000180 5c 08 1a 3d 1b be 72 bd 1d 45 cc 3b 82 ea be bd
       0.03760563 -0.05926333 0.006233825 -0.093220726
000190 1f f1 67 3e 2f 69 6e bf 0d 43 9c 3d 45 7f f7 be
       0.22650574 -0.9312925 0.076299764 -0.48339286
0001a0 60 07 86 3c 07 10 3e be 6f 4b df 3c 7f 01 4d be
       0.016360939 -0.18560801 0.02725765 -0.20020102
0001b0 32 0f 18 3e 7d c9 29 be ac 07 b5 be ed 97 a8 3d
       0.14849547 -0.16580768 -0.35357416 0.082321025
0001c0 65 6d 77 be b2 60 75 3b c5 f9 26 bf dd 32 98 be
       -0.24162824 0.0037441668 -0.6522487 -0.29726306
0001d0 a1 ea 32 3f 11 af 17 3c d7 b5 42 3f 94 0e b8 3e
       0.69889265 0.009258048 0.76058716 0.35948622
0001e0 1b b1 a9 3d ab c9 a8 3e 63 20 9e 3d 5d c0 e1 3e
       0.08285733 0.3296636 0.07721021 0.44092074
0001f0 c7 52 10 3e c4 92 f7 bd 79 bd 3e 3e fe 20 f4 3d
       0.14094077 -0.1208854 0.18626966 0.11920355
000200 c1 68 ed be 7b f4 2b bf 0d 78 1f bf e3 ec 08 3f
       -0.46368983 -0.6716992 -0.6229256 0.5348646
000210 d3 e8 e2 bd 0c 12 7a 3f b6 44 b9 be c8 f8 c0 3e
       -0.11079564 0.9768379 -0.36185235 0.37689805
000220 49 49 26 bf 81 1a 7e be 17 63 60 be b2 80 8f 3e
       -0.64955574 -0.24814798 -0.219128 0.28027874
000230 52 57 b4 3e 21 df a6 3e ae 5c 48 3d e3 c0 fc 3e
       0.3522287 0.3259211 0.04891651 0.4936591
000240 3a 34 00 3f 2b 36 35 3f ff 54 3f be 63 91 90 bd
       0.5007969 0.7078578 -0.18684767 -0.0705898
000250 5c 1a 57 3e 29 e5 6a bf 78 1a 26 bc 37 28 22 3f
       0.21006149 -0.9175592 -0.010138147 0.63342613
000260 52 fd 0a 3f fb b6 d1 3e cb d3 1a bb 78 b9 10 3f
       0.54292786 0.40959916 -0.0023624774 0.56533
000270 64 1c 21 3e fb 19 fd bd 30 c1 e2 3d b3 57 e4 be
       0.15733486 -0.12358471 0.11072004 -0.4459816
000280 94 44 59 bf 71 14 bc 3e 2f 95 a3 3e 93 1c 68 3e
       -0.84870267 0.36734346 0.31949756 0.2266715
000290 ca 52 ff bd d1 bb 0f 3e 0a 97 41 3f 3b d1 56 bf
       -0.12466963 0.1403649 0.7562109 -0.8391301
0002a0 aa 80 b6 3d 75 49 2b be 4f 3c 81 3e 1a c5 de bd
       0.089112595 -0.1672724 0.25241324 -0.10877438
0002b0 e3 44 4e 3e 5a 5c e9 3d 9c 50 1e bc 9a ba 29 be
       0.20143466 0.11394568 -0.009662773 -0.16575089
0002c0 d7 df 3c bf 9d 3a f7 3e 30 80 a9 be 4a c2 0a bf
       -0.7377905 0.48286906 -0.33105612 -0.5420271
0002d0 7d 47 98 be 93 0b 04 be f2 91 10 bd 93 90 54 be
       -0.2974204 -0.1289504 -0.035295434 -0.20758276
0002e0 73 57 20 bf b6 29 1e 3e 01 45 5d 3f 76 24 46 3f
       -0.62633437 0.15445599 0.86433417 0.77399385
0002f0 4e 84 8e 3e 15 b0 e4 bd e4 7d d2 be 09 93 41 3f
       0.27835315 -0.111663975 -0.41111672 0.7561498
000300 5d bf 24 3f 00 10 c8 3e d4 97 4b be ed fd cc 3d
       0.643545 0.39074707 -0.19882137 0.1000937
000310 cd 0b 84 3d 6f a0 26 bf 66 b0 24 3f 8f 05 10 be
       0.06447563 -0.6508855 0.6433166 -0.1406462
000320 79 5d 2a ba 1b 00 f6 3e 66 f8 db 3e bd 4a 09 3f
       -0.0006498914 0.48046955 0.4296295 0.53629667
000330 01 34 d4 3e 91 54 bf bd 60 6b 0f 3d 63 8c d8 3e
       0.41445926 -0.09342302 0.03501451 0.42294607
000340 a4 31 33 3e e7 a6 ec 3e 45 55 ab be 15 66 3e 3f
       0.17499405 0.46221086 -0.33463493 0.74374515
000350 02 4e 2d 3e 67 8c 92 bd 8d f7 4c be a5 d8 9b bd
       0.16924289 -0.07155686 -0.20016308 -0.07609681
000360 24 4b ba 3e 96 6d 63 3e 7d 07 4e 3f 09 35 f3 be
       0.36385453 0.22209772 0.80480176 -0.475014
000370 21 a1 a3 3e 71 05 9b be e0 5f 5a 3e 6f 3e a5 3e
       0.3195887 -0.3027759 0.21325636 0.32274196
000380 a4 19 a8 3d 84 ea d4 bd cb 76 88 be bb 85 e4 be
       0.082080156 -0.10396293 -0.26653132 -0.44633278
000390 9a e6 19 3f c4 99 fc 3e f5 cd 06 3f 1c 2c 25 3f
       0.60117495 0.49336064 0.52658015 0.6452043
0003a0 41 6a bc 3e e4 d3 03 3f 92 62 7b 3e f1 8b d8 be
       0.36799815 0.51495194 0.2454932 -0.42294267
0003b0 bc 8d 32 bf 5d 61 87 bf 54 3b 69 bc 09 41 63 3d
       -0.6974752 -1.0576588 -0.014235336 0.055481944
0003c0 19 96 8b be 63 81 44 bf e1 fd 2b be c1 07 ff be
       -0.27262953 -0.7675993 -0.16796066 -0.49810603
0003d0 21 76 fb 3d fc 1b 79 bf 46 63 12 bf 40 bc c7 be
       0.12278391 -0.97308326 -0.5718273 -0.3901081
0003e0 db 30 dc 3d 5a f8 df be 8b ff e4 be 13 08 38 be
       0.10751506 -0.43744165 -0.44726214 -0.1797183
0003f0 45 8f 3d bf 5e 58 33 bf 57 ad f2 be 67 9f ec bc
       -0.74046737 -0.7005671 -0.47397873 -0.028884603

fc_net.0.bias f4 [32]
000000 db b8 89 3e 3c 23 07 be 4a b2 51 bf 47 36 7c be
       0.26898846 -0.13197035 -0.8191267 -0.2463008
000010 aa 48 aa bd d8 e9 91 3e 06 1c 9c 3f 41 a9 81 be
       -0.08314641 0.2849872 1.2196052 -0.25324443
000020 63 c1 12 bd aa a4 5d bf 9d 63 87 be f6 ec 0d 3f
       -0.03582896 -0.8657938 -0.26443186 0.554397
000030 0b b4 83 3f 9a 2b 23 3d db 04 56 3e e1 d2 dd be
       1.028932 0.039836504 0.2090029 -0.4332495
000040 1b ab 44 be 77 6b e3 3d 7c f9 13 3f a7 8e 56 3e
       -0.19205897 0.11104482 0.5780256 0.20952855
000050 01 5a f9 bc c5 a8 a0 be e4 dd 62 3e b2 99 51 be
       -0.030438425 -0.3137876 0.22154957 -0.20468786
000060 0b 38 82 bf 5f 63 25 3f 06 cc af be f1 64 9c bd
       -1.0173353 0.64604753 -0.34335345 -0.076364405
000070 56 71 2d be fb a4 2e bf 23 5c 24 bf 10 42 0f bf
       -0.16937765 -0.6822049 -0.6420309 -0.5596018

fc_net.2.weight f4 [32, 32]
000000 08 b2 99 bc 80 b9 e9 3e d7 9b be be 95 33 d7 3e
       -0.01876165 0.45649338 -0.3722827 0.4203154
000010 3c 8c 5a be c5 89 92 bd 44 6c 06 3f c6 5b f4 be
       -0.21342558 -0.07155184 0.5250895 -0.47726268
000020 ae 9a 66 bf fa 05 5b bd f1 c6 ad be 7f 71 35 be
       -0.9007977 -0.053472497 -0.33940843 -0.17719077
000030 c7 10 9b 3e e2 70 8d 3c 5c ae 4c be 2e c6 1a 3e
       0.30286238 0.01726574 -0.19988388 0.15114662
000040 de 3f b2 be a8 fa 65 bf ea 13 8a bd 46 b2 0b be
       -0.34814352 -0.89835596 -0.067420796 -0.13642225
000050 51 b8 e4 be b9 63 5e be b7 5f 3f be f0 1b 8e 3c
       -0.44671872 -0.21717729 -0.18688856 0.017347306
000060 ff 95 8c bf 47 6d 35 be c6 80 0e bf ef 22 5b be
       -1.0983275 -0.17717467 -0.5566524 -0.21400045
000070 a0 fe ad bd e7 4a 1b be 13 c9 3e bf 49 66 69 bc
       -0.084958315 -0.15165292 -0.74525565 -0.014245578
000080 32 a8 2f 3e 0d 3f 0a 3f cb 7e 0b bf 10 3c 5b 3e
       0.17154005 0.5400246 -0.54490346 0.21409631
000090 a8 e6 3c bd e8 aa be 3e e4 c8 96 3e de 62 8a be
       -0.04611841 0.37239766 0.29450142 -0.27028555
0000a0 d3 89 17 bf 85 d3 83 3e 80 c3 27 3e 95 a4 e5 bd
       -0.5919468 0.25747314 0.16383171 -0.11213032
0000b0 28 95 ac 3d c4 37 49 be 9f f2 80 be f9 d1 fb bc
       0.08426887 -0.19650179 -0.25185105 -0.030739771
0000c0 24 a0 c7 be 17 4c d0 be 07 9a 28 bf 25 09 57 bf
       -0.38989365 -0.40683052 -0.6586003 -0.8399833
0000d0 81 2e 1f 3e 22 db 92 bf af db 47 be f9 b5 87 bc
       0.15545084 -1.1473124 -0.19517396 -0.016566264
0000e0 46 a5 e8 be 7f f5 65 bf fa 23 bb be 7f e4 35 bf
       -0.45438594 -0.8982772 -0.36550885 -0.7105178
0000f0 18 01 ce 3e 48 dd be bd a1 04 3a bf a6 ec 2b 3e
       0.4023521 -0.0931955 -0.72663313 0.16789493
000100 5e ac 3b be 26 70 03 bd f5 bc b2 be 70 ba b3 be
       -0.18327472 -0.032089375 -0.34909788 -0.35103178
000110 3b 40 e4 3e 00 66 09 3f 9a 61 17 3e 83 97 d2 3e
       0.44580254 0.53671265 0.14783326 0.4113122
000120 a7 94 9c 3f 22 e8 58 bf bb ad d6 be d0 3a ca 3e
       1.2232865 -0.84729207 -0.4192942 0.39497995
000130 58 a5 01 bc 7d 71 4c be 68 dc 63 be b8 e3 05 bf
       -0.007912956 -0.19965167 -0.22252047 -0.52300596
000140 8f 70 d3 3e 53 f0 6d 3e 04 8d 17 3f 9d ae 24 3f
       0.41296813 0.23236208 0.5919955 0.6432894
000150 00 18 cd bd c9 e6 4a bf b8 89 26 3f e4 cd 07 3f
       -0.10014343 -0.792584 0.6505389 0.5304854
000160 1b 7d 77 be 0c b9 8c 3e df f5 1a bf 93 a0 87 3e
       -0.24168818 0.2748493 -0.6053142 0.26489696
000170 f8 67 96 3f e3 b1 8e 3d 8a 2c 29 be b2 69 76 3e
       1.1750479 0.06967523 -0.16520897 0.24063757
000180 c3 4d 1e 3e 19 83 04 3f 79 90 04 3f d7 be b8 3d
       0.15459351 0.5176254 0.5178295 0.09020775
000190 e3 df d1 bc b5 5f 33 bf 9f 6a 78 be ff 48 1d bf
       -0.025619453 -0.7006791 -0.24259423 -0.6143951
0001a0 55 b5 19 be 0f ca 0a 3f ad 8e 44 3d 93 34 0a be
       -0.15010579 0.54214567 0.04798763 -0.13496618
0001b0 94 e0 47 be 31 fc 9f be 7f e2 24 3e 58 b7 0f 3e
       -0.19519264 -0.31247094 0.16102026 0.14034784
0001c0 1d aa 56 3e 62 a2 26 bf f6 6a 15 bf fd ba 9c bd
       0.2096333 -0.65091527 -0.58366334 -0.07652853
0001d0 ac ad fe 3d b3 d9 6e 3e 82 9e 6a 3c b7 58 60 bd
       0.12435469 0.23325233 0.014320018 -0.054772105
0001e0 a8 2f 1c bf 06 34 dd be 6b 52 ab 3e 2f 45 04 3e
       -0.6101022 -0.43203753 0.33461317 0.12917016
0001f0 59 f4 9a be 8a be d1 3e 03 2e d0 3c 14 89 99 3d
       -0.30264547 0.40965682 0.025412565 0.07496849
000200 0b 26 55 3f 37 37 1d 3f 7e 0b 22 be 84 ba 80 3e
       0.83261174 0.61412376 -0.15824696 0.251423
000210 9a 60 7c 3b 3c d8 61 3e e1 88 01 3f 7f 33 09 be
       0.0038509727 0.22055143 0.50599486 -0.1339855
000220 31 15 8c bf 5e 79 80 3d 9f aa 31 3f 6e 13 ad 3e
       -1.0943967 0.06273149 0.6940097 0.33803886
000230 52 58 3f be c8 22 2e 3f 4e 15 a6 bf f2 e5 6b bc
       -0.18686035 0.6802182 -1.2975252 -0.014398085
000240 9b f7 f4 be 31 4d c2 be 48 d7 3e bf 0c fe 04 bf
       -0.47845158 -0.37949517 -0.74547243 -0.51950145
000250 ae e5 4e 3f e5 35 c7 3e 99 30 85 3c 65 33 7d bf
       0.80819213 0.38908306 0.016258525 -0.98906547
000260 ed 19 a8 3d 6b 6f c3 bb 0b bf 39 3f f1 bf 13 bf
       0.0820807 -0.00596421 0.72557133 -0.57714754
000270 4b 4d 00 c0 d9 e6 3e 3e 21 17 ff 3e b9 d3 3a bd
       -2.0047176 0.18642749 0.49822333 -0.04561207
000280 ff f6 fb bc 7d f1 f5 3d fa 49 b3 be a0 d4 af bd
       -0.030757425 0.12008951 -0.35017377 -0.08585477
000290 36 01 41 bc df 54 23 3f 66 d4 88 3e 49 a2 0b 3f
       -0.011780074 0.6380138 0.26724547 0.545445
0002a0 4e cf 00 40 2c f6 37 bf 42 6f f0 bd 73 97 54 3e
       2.0126529 -0.71860003 -0.11739971 0.20760898
0002b0 b6 ba 6a be 87 24 59 be 26 5c 83 be c1 d5 2d bf
       -0.22922787 -0.2120534 -0.2565624 -0.6790429
0002c0 24 2f a4 3d 1b ef 1c 3e c0 1f 46 3f a7 39 ce bd
       0.08016804 0.15325586 0.77392197 -0.1006959
0002d0 48 17 9a bd 19 e3 19 bf 3f 21 8f 3d 41 96 00 3f
       -0.07523972 -0.6011215 0.06988763 0.5022927
0002e0 ee e6 66 be b5 30 8b bc 94 f4 3f bf 45 c5 0a 3e
       -0.2254903 -0.016990999 -0.7498257 0.13551815
0002f0 d6 26 5f 3f c5 d0 21 3e 17 24 49 3e ea 7c 9e 3e
       0.87168634 0.15802296 0.19642673 0.30954677
000300 dd 90 09 3e d1 21 67 3e 5a 7e 21 3f 2e f6 8e be
       0.13434167 0.22571494 0.6308342 -0.27922195
000310 61 43 3d be f4 46 1a be 07 06 59 3e bd a6 3f bf
       -0.18482734 -0.15066129 0.21193705 -0.748638
000320 fd e1 d1 3e 32 e8 e7 bd fe c3 71 be 49 b3 14 bd
       0.40992728 -0.113235846 -0.23609921 -0.036303792
000330 25 8f 4c bc ba 22 f4 3d 26 0a 0e bf 9d b4 13 be
       -0.0124853 0.11920686 -0.55484235 -0.14424367
000340 ca 08 b4 be cb 1a 8c be 78 6e 7c bf e6 d2 28 be
       -0.35162956 -0.2736419 -0.9860606 -0.16486701
000350 e7 7c 32 3e bc 90 61 be de e1 31 3b 21 61 94 be
       0.17430459 -0.22027868 0.0027142684 -0.28980353
000360 f6 ee 91 be de d4 10 bf 06 24 ad 3e ff bd bc bd
       -0.28502625 -0.5657481 0.33816546 -0.092159264
000370 6a 00 01 be c4 9c 92 3e 99 11 bb be 79 bd 9b bd
       -0.12597814 0.28635228 -0.36536863 -0.076044984
000380 06 99 23 3c 2e f2 1d c0 60 ad 91 bf 67 91 5b bf
       0.009985214 -2.4679065 -1.1381035 -0.8576874
000390 14 bb 0e 3e 4f 0c af 3e 07 86 a3 be 8c 89 b3 3b
       0.13938552 0.34189078 -0.31938192 0.0054790433
0003a0 8f 6f 53 3f 60 ff 4d 3e d8 8d a1 be 4e 7b f6 3e
       0.825921 0.20116949 -0.3155353 0.4814095
0003b0 dc 33 0d 3f c2 ff 68 3e ab d0 6a 3e 04 23 d3 bd
       0.55157256 0.22753814 0.22931163 -0.10309413
0003c0 33 9b 96 3e 63 31 4d 3e 9e f0 90 3e 93 15 61 3f
       0.29415283 0.20038371 0.28308576 0.87923545
0003d0 9d 02 c4 be d6 4a 95 bf b5 6f bc 3e 88 fa 17 3f
       -0.38283244 -1.1663463 0.36803976 0.59366655
0003e0 2b 3e 2b bf d5 0e 86 bd fa 42 b9 bc 35 1d 1b 3e
       -0.66891736 -0.06545798 -0.022614945 0.1514786
0003f0 20 5b 32 3f 88 62 e8 bf 07 7a 1c 3d de f4 57 3e
       0.69670296 -1.8155069 0.03820231 0.21089503

fc_net.2.bias f4 [32]
000000 d1 69 2a 3f be 0d 3a be a8 87 01 3f 20 aa aa be
       0.66567713 -0.18169305 0.5059762 -0.3333292
000010 b0 03 46 3e 26 e3 ea 3e 6d 9e ae be 0e ca e2 3e
       0.19337344 0.45876426 -0.34105244 0.4429478
000020 5c d0 c9 3e fc 2a 70 3e 63 8a 27 3f 62 77 bf 3e
       0.39416778 0.23453897 0.65445536 0.3739577
000030 29 c3 c2 3e 5f ea 18 bf 98 f8 b7 3e 85 3d 65 3f
       0.3803952 -0.5973262 0.3593185 0.89546996
000040 e6 80 9c 3e 9e 02 3c 3f be f7 84 3e da c3 cd bd
       0.30567092 0.73441494 0.25970262 -0.10047121
000050 52 f1 fa 3d a7 44 10 3f e1 04 15 3f 9c d5 71 be
       0.122530594 0.56354755 0.5821057 -0.23616642
000060 d6 e3 86 be cd fa dd 3e 3a e3 ea 3e 11 8b 2e 3f
       -0.263457 0.43355408 0.45876485 0.6818095
000070 37 32 ff 3d 0a 02 f2 3d c0 be 55 3f 46 ee 1b 3f
       0.124607496 0.11816795 0.83494186 0.6091045

action_head.weight f4 [5, 32]
000000 b0 c9 51 bf 24 1f 43 bf b2 c2 56 3f 80 55 0d bf
       -0.81948376 -0.7621939 0.8389083 -0.5520859
000010 ec 39 6f bf 87 0b 7d 3f 6e ba 21 bf a0 fa 37 3f
       -0.93447757 0.98845714 -0.63175094 0.718668
000020 4a d0 5a bf cc 09 76 bf 3f f3 81 bf 62 c3 40 bf
       -0.85474074 -0.961087 -1.0152358 -0.7529813
000030 84 1b 4e 3f d5 15 22 bf 78 ab 8b bf 88 07 32 3f
       0.80510736 -0.63314563 -1.0911703 0.6954274
000040 2e 4e 55 bf 7f 07 b0 bf 68 f8 63 bf 57 ac 92 bf
       -0.8332242 -1.3752288 -0.8905091 -1.1458844
000050 d0 b8 79 bf 57 f4 3d 3f 3c 18 55 3f 5e 10 c3 bf
       -0.97547626 0.7420096 0.83240104 -1.523937
000060 a3 a1 1f bf b2 f9 4d 3f 1b a7 30 3f be a7 39 3f
       -0.62356013 0.8045913 0.6900498 0.7252158
000070 39 e4 a1 bf 8b 66 81 bf 63 b0 79 3f 90 79 1f 3f
       -1.2647773 -1.0109419 0.9753477 0.62294865
000080 f7 a8 8d bf 18 3e 71 bf dc de 49 3f b5 4f 2e bf
       -1.1067189 -0.9423537 0.7885568 -0.68090373
000090 f7 3a 70 bf 63 8f 66 3f 0a ab 23 bf 88 f6 5c 3f
       -0.93839973 0.9006254 -0.6393286 0.86313677
0000a0 86 e3 2d bf 8e b9 76 bf 5e 91 46 bf 33 55 f5 be
       -0.679253 -0.96376884 -0.7756556 -0.47916564
0000b0 cf 85 4d 3f 71 0c 27 bf 3a 27 92 bf 6c e0 42 3f
       0.802823 -0.6525336 -1.1418221 0.7612369
0000c0 20 82 49 bf d2 f7 ac bf 87 ef 89 bf c4 dc 98 bf
       -0.7871418 -1.3513129 -1.0776223 -1.1942372
0000d0 af 1e a1 bf 51 46 18 3f 02 93 62 3f 7e 20 7c bf
       -1.2587489 0.59482294 0.88505566 -0.9848708
0000e0 15 4f 23 bf 91 c7 29 3f 02 66 62 3f ed e8 32 3f
       -0.63792545 0.6632014 0.884369 0.69886667
0000f0 34 15 9e bf d7 60 82 bf 59 16 60 3f 25 ed 3d 3f
       -1.2350221 -1.0185803 0.875341 0.7418998
000100 e4 3c 6f bf b2 df 8b bf 6e 47 3f 3f ef 70 f7 be
       -0.93452287 -1.0927641 0.7471837 -0.4832835
000110 43 01 90 bf 69 e9 28 3f 65 53 4e bf 1a 3a 31 3f
       -1.1250385 0.65981156 -0.80596 0.6922928
000120 a9 4a 1a bf 4b 9f 0a bf 5a 26 98 bf 0f 80 57 bf
       -0.6027017 -0.5414931 -1.1886704 -0.84179777
000130 8d c3 78 3f c3 8b 49 bf dc ce 5a bf 68 c3 53 3f
       0.97173387 -0.78728884 -0.8547189 0.8272004
000140 dd 63 47 bf 80 3c b3 bf 2b 4d 85 bf 3b fd 8e bf
       -0.77886754 -1.4002838 -1.0414175 -1.117103
000150 70 30 fc be 52 fc 28 3f d8 9e 26 3f 42 7a b0 bf
       -0.49255705 0.6601001 0.65086126 -1.378731
000160 25 d2 13 bf da 1d 35 3f 52 64 5b 3f 05 94 3e 3f
       -0.5774253 0.70748675 0.8569995 0.7444461
000170 06 42 8e bf fa af 77 bf 8d 3c 89 3f d4 bf 45 3f
       -1.1113899 -0.96752894 1.0721604 0.7724583
000180 5a a4 6d bf d8 ec 3e bf 5d be 25 3f a9 27 18 bf
       -0.92828906 -0.74580145 0.64743596 -0.59435517
000190 a3 96 64 bf fd 2c 76 3f bf 50 e2 be 08 cf 24 3f
       -0.89292353 0.96162397 -0.4420223 0.64378405
0001a0 fe c9 3f bf 3a 33 43 bf e9 9d 97 bf 97 a8 0c bf
       -0.7491759 -0.7625004 -1.1845065 -0.5494475
0001b0 05 94 40 3f de ae 5a bf 73 e3 85 bf 36 85 15 3f
       0.7522586 -0.85423076 -1.0460037 0.5840639
0001c0 de 38 2d bf 3b e3 9c bf 74 a7 91 bf c0 c1 9a bf
       -0.676649 -1.2256845 -1.1379228 -1.2090378
0001d0 3a 81 81 bf ec cf 56 3f 09 1f 3e 3f 5b d0 a8 bf
       -1.0117562 0.83911014 0.74266106 -1.3188585
0001e0 7d 8c 46 bf eb 98 55 3f 13 c1 6a 3f 6f 2d 5f 3f
       -0.7755812 0.8343646 0.9170086 0.871787
0001f0 5e 44 a3 bf b4 d5 93 bf 55 9c 8c 3f 54 0d 04 3f
       -1.2755239 -1.1549592 1.0985209 0.5158284
000200 f7 80 80 bf dc 21 6f bf 37 ca 3e 3f 70 1c 0a bf
       -1.0039357 -0.9341104 0.74527305 -0.5394964
000210 d4 96 81 bf 01 7f 55 3f 62 a8 0d bf f9 ad 42 3f
       -1.0124154 0.8339692 -0.55335057 0.7604671
000220 a5 97 03 bf b5 a5 7e bf e2 32 3b bf 91 cb 8c bf
       -0.51403266 -0.994716 -0.73124516 -1.0999624
000230 58 0c 59 3f c1 10 10 bf ef 3d 9b bf 51 92 68 3f
       0.8478446 -0.56275564 -1.2128276 0.9084826
000240 5a eb 6c bf 81 76 a7 bf dc 4a 83 bf e8 c9 94 bf
       -0.9254662 -1.308304 -1.025722 -1.1624117
000250 cc ef 4f bf 86 ff 24 3f aa 52 5f 3f c1 34 93 bf
       -0.81225276 0.644524 0.8723551 -1.1500474
000260 24 e6 0a bf 98 4c 23 3f 60 72 52 3f 19 56 30 3f
       -0.54257417 0.6378875 0.8220577 0.68881375
000270 9f 2a 9c bf 98 a8 85 bf fa 2f 70 3f 31 74 51 3f
       -1.2200507 -1.0442076 0.93823206 0.8181792

action_head.bias f4 [5]
000000 84 aa aa 3e de 7c e0 3e 54 7d a6 3e be e3 fa 3b
       0.33333218 0.43845266 0.32517493 0.0076565435
000010 56 4f e1 3e
       0.4400584
