experiments/exp-20200629-10-09-49/weights/weights-2.pth (torch_old, 7451 bytes, 6 tensors)

fc_net.0.weight f4 [32, 10]
0	0x3f353414	0.7078259
1	0xbc129d36	-0.008948615
2	0x3ec62435	0.386995
3	0x3f0729d5	0.52798206
4	0xbf33f9b0	-0.7030287
5	0xbeaac1d0	-0.33350992
6	0xbf4a1a8c	-0.7894676
7	0x3f1313bc	0.5745199
8	0xbd63e0e2	-0.055634387
9	0x3e312323	0.1729856
10	0xbdeef497	-0.116677456
11	0xbed2a044	-0.41137898
12	0xbec6148e	-0.38687557
13	0xbfa1f0d9	-1.2651626
14	0xbf5d7ed6	-0.8652166
15	0x3eed3633	0.46330413
16	0xbe511ef0	-0.20421958
17	0xbf13c093	-0.5771572
18	0x3e0adf17	0.13561665
19	0x3ef5fd33	0.48044738
20	0xbf7711ec	-0.9651172
21	0xbf8f1047	-1.1176842
22	0x3e8e98d0	0.27850962
23	0x3f47e354	0.7808125
24	0xbdd561b0	-0.10419023
25	0xbed6897a	-0.4190176
26	0xbe6a79d8	-0.22898042
27	0x3f35b9dc	0.70986724
28	0x3f3bd174	0.73366475
29	0x3e98bb4c	0.29830396
30	0xbd545bd5	-0.05184539
31	0x3f62dfbb	0.88622636
32	0x3d010cc5	0.03150632
33	0x3df6f1e8	0.12057859
34	0x3da7d00c	0.08193979
35	0x3ec9d450	0.39419794
36	0xbeb17eb9	-0.34666994
37	0xbe2259df	-0.15854596
38	0x3ece73e6	0.40322798
39	0xbfbc0837	-1.4690007
40	0x3db3d1d4	0.08780256
41	0x3f084c6a	0.532416
42	0xbf592f28	-0.8483758
43	0xbf5a4ea7	-0.85276264
44	0xbdb93eeb	-0.09045204
45	0xbf375cce	-0.71625984
46	0x3d4b7b24	0.049677983
47	0xbf364b97	-0.7120909
48	0x3ebf5869	0.3737214
49	0x3e8a19a8	0.269727
50	0xbf175688	-0.5911641
51	0xbf05e978	-0.5230937
52	0xbebe644b	-0.37185892
53	0xbeb53b99	-0.35397032
54	0x3e9b89f8	0.303787
55	0xbe0a6d64	-0.13518292
56	0x3f653dff	0.89547724
57	0x3f292865	0.6607726
58	0xbdcc97fa	-0.09989925
59	0xbe16493e	-0.14676377
60	0x3f0560cf	0.52100843
61	0xbf2b81f6	-0.6699518
62	0x3f1c0eca	0.60960066
63	0xbea6902c	-0.3253187
64	0x3e99e71e	0.3005914
65	0x3c0c4b04	0.008562807
66	0xbed729ee	-0.42024177
67	0xbda6e218	-0.08148593
68	0x3da78447	0.08179527
69	0x3eef5dad	0.46751156
70	0xbd7692f7	-0.06019875
71	0x3f61f7ad	0.8826855
72	0xbe7203bb	-0.23634236
73	0x3ea76cac	0.32700098
74	0x3eb4e5b4	0.353315
75	0xbd855c6d	-0.065117694
76	0x3e5f142d	0.2178504
77	0xbd81db48	-0.06340653
78	0x3d102f46	0.035201333
79	0x3f816eac	1.0111899
80	0x3f1d9f7f	0.61571497
81	0xbdaabf67	-0.08337288
82	0x3dfd9f00	0.123838425
83	0xbdbc16ed	-0.0918406
84	0xbe082453	-0.13295107
85	0xbe9d4012	-0.30712944
86	0x3df228a3	0.11824157
87	0xbe6e7a7d	-0.23288913
88	0xbf725ad4	-0.9466984
89	0x3f21d020	0.632082
90	0x3e6946ef	0.22780965
91	0x3f0723a4	0.5278876
92	0x3eb8f5e5	0.36125103
93	0xbd153979	-0.036431763
94	0x3e60cf3b	0.21954052
95	0x3e62afb9	0.22137345
96	0x3ecacaff	0.39608
97	0x3dd260ca	0.10272367
98	0xbf8061a0	-1.0029793
99	0xbedee0de	-0.43530935
100	0xbf931a23	-1.1492351
101	0x3ed3c9a7	0.41364786
102	0x3fadfd99	1.3593017
103	0xbf6c99cc	-0.92422175
104	0xbeb5df8a	-0.3552211
105	0x3fb201bd	1.390678
106	0x3f335ac7	0.7006039
107	0x3f2f6b3a	0.6852299
108	0xbf1b786f	-0.6073064
109	0xbe22280c	-0.15835589
110	0xbe291de7	-0.16515313
111	0xbeb40f6e	-0.35168022
112	0xbf69b06d	-0.9128483
113	0x3f1e33a3	0.6179754
114	0xbeb9f752	-0.36321503
115	0xbed3b367	-0.4134781
116	0x3f20655a	0.6265465
117	0x3eab152a	0.33414584
118	0x3dfc2e1b	0.123134814
119	0xbec3cc68	-0.38241887
120	0xbf6f2c27	-0.93426746
121	0x3e113cfb	0.14183418
122	0x3ea122b7	0.31471798
123	0x3f2615ca	0.64877
124	0x3eba0d6a	0.3633836
125	0xbf497b9e	-0.7870425
126	0x3f4d7c78	0.8026805
127	0x3d1cfe32	0.038328357
128	0xbece4ab3	-0.40291366
129	0xbe850f90	-0.25988436
130	0x3dea96eb	0.114545666
131	0xbc083050	-0.0083123
132	0x3f6f726b	0.9353396
133	0x3e6dd37b	0.23225205
134	0xbf0f8d3d	-0.5607489
135	0xbe0c33bd	-0.13691612
136	0xbf072c3c	-0.5280187
137	0xbf5f245e	-0.87164867
138	0x3ea1898d	0.31550255
139	0x3dbbcbe8	0.091697514
140	0x3eb47e62	0.35252672
141	0xbf35434e	-0.70805824
142	0xbf53ed36	-0.8278383
143	0xbe7a34ff	-0.24434279
144	0x3f408af5	0.7521203
145	0x3f43a31c	0.7642076
146	0xbe9e3fb8	-0.3090799
147	0x3f440818	0.7657485
148	0xbc97df51	-0.018539103
149	0xbf0dbd94	-0.553674
150	0xbecde628	-0.40214658
151	0x3f740143	0.95314425
152	0x3e9d3c2e	0.30709976
153	0x3eee9ebb	0.46605477
154	0x3e883fed	0.26611272
155	0x3e8a5ca0	0.27023792
156	0xbe5fa077	-0.21838556
157	0x3f1ae099	0.6049896
158	0x3dba5d90	0.09099877
159	0x3d9e12ac	0.07718405
160	0xbf6b2325	-0.918505
161	0xbefa74cb	-0.4891723
162	0x3f9300c8	1.1484613
163	0xbe905529	-0.28189972
164	0xbf28f8ce	-0.66004646
165	0x3e91f4af	0.2850699
166	0x3e53208f	0.20617889
167	0xbd988006	-0.074462935
168	0xbec1a7af	-0.37823245
169	0xbf279345	-0.6545909
170	0xbf518a60	-0.8185177
171	0x3e8702ac	0.26369226
172	0xbee24f8f	-0.44201323
173	0x3e775110	0.24152017
174	0xbea3f97c	-0.3202628
175	0xbf73b229	-0.95193726
176	0xbf0a2b29	-0.5397211
177	0x3ec976f8	0.39348578
178	0xbceac388	-0.02865769
179	0xbd4a887e	-0.049446575
180	0x3e43e599	0.19130553
181	0x3e632caf	0.22185014
182	0x3e5b8c62	0.2144027
183	0x3f324596	0.6963743
184	0xbf283553	-0.65706366
185	0xbd007a67	-0.031366732
186	0x3e89bb62	0.26900774
187	0x3efbf64f	0.49211356
188	0x3e4ae954	0.1981557
189	0x3e46aa71	0.19400956
190	0xbf2b6e81	-0.6696549
191	0x3f0f63e8	0.5601182
192	0x3f551987	0.83242077
193	0x3f08211a	0.5317551
194	0xbeb019ff	-0.34394833
195	0xbedf7355	-0.4364268
196	0x3ee2d27e	0.44301218
197	0xbebc81ff	-0.3681793
198	0x3e4cd7a2	0.20004132
199	0xbe1d3690	-0.15352845
200	0xbf38dd34	-0.7221253
201	0xbf83fd05	-1.031159
202	0x3ec85fa6	0.39135474
203	0x3f1f8499	0.623117
204	0x3f21527c	0.63016486
205	0x3f151437	0.5823397
206	0x3f197525	0.59944373
207	0x3ed0f2a6	0.40810126
208	0x3c449244	0.011997763
209	0x3f3e291d	0.74281484
210	0x3e7e372c	0.24825734
211	0x3c202992	0.009775536
212	0xbd77b79d	-0.06047784
213	0xbf4f6157	-0.81007904
214	0xbfb05157	-1.3774823
215	0xbe5bcc3a	-0.21464625
216	0x3e083199	0.1330017
217	0x3e8f7cf0	0.28025007
218	0x3e59869c	0.21242756
219	0x3f1258c8	0.5716672
220	0xbe69fea8	-0.2285105
221	0x3f83d3cf	1.0299014
222	0xbf7e45aa	-0.9932505
223	0xbf5ffc27	-0.8749413
224	0x3e1c0b01	0.15238573
225	0xbf4da679	-0.8033214
226	0xbf214de3	-0.6300947
227	0xbe918522	-0.28421885
228	0x3fc525a7	1.5402116
229	0x3f9246d7	1.1427869
230	0xbbe910fd	-0.007112621
231	0x3fad0d2e	1.3519647
232	0xbe0762b5	-0.13221247
233	0xbf174afe	-0.59098804
234	0x3eca4d46	0.3951208
235	0x3e93d64c	0.28874433
236	0x3e8d9743	0.27654466
237	0xbf1d5240	-0.6145363
238	0xbd0eb296	-0.03483828
239	0xbe14fca4	-0.145495
240	0x3fa4c07f	1.2871245
241	0x3f12f19a	0.57399905
242	0x3e11c8fb	0.14236824
243	0xbeb6d54f	-0.35709617
244	0xbe82fbde	-0.25582784
245	0x3e7641d5	0.2404855
246	0xbf869054	-1.0512795
247	0xbef43244	-0.476946
248	0xbd41b97e	-0.04729604
249	0xbc82a034	-0.015945531
250	0xbf6afc50	-0.9179125
251	0x3ee79c11	0.45236257
252	0x3f72ec9d	0.94892293
253	0xbd581902	-0.052758224
254	0xbf7b6a67	-0.9820923
255	0xbf10c3c3	-0.5654871

fc_net.0.bias f4 [32]
0	0x3e59bc23	0.21263175
1	0xbec88ab4	-0.39168322
2	0xbf952c83	-1.1654209
3	0xbe531aaa	-0.2061564
4	0x3dffc4f1	0.124887355
5	0x3e50d453	0.20393495
6	0xbf2b98fc	-0.6703031
7	0xbd9434e7	-0.07236653
8	0xbf7774b3	-0.96662444
9	0xbf73523d	-0.9504736
10	0xbe06793d	-0.13132186
11	0x3ec4e8ee	0.3845896
12	0xbd6c8c5c	-0.057751045
13	0x3f577de8	0.8417649
14	0x3df6f146	0.12057738
15	0xbf0e9de5	-0.5570968
16	0xbd1840b9	-0.0371711
17	0x3de5028c	0.111821264
18	0x3edb9d74	0.42893565
19	0xbeace7ba	-0.33770543
20	0xbe2e6ed1	-0.1703446
21	0xbfe6a277	-1.801833
22	0xbd9c814d	-0.0764185
23	0xbf006644	-0.50156045
24	0xbef06ab7	-0.46956417
25	0xbdf01323	-0.117224
26	0x3f10e4ea	0.56599295
27	0xbeb0d4a6	-0.34537238
28	0xbecb53b5	-0.397123
29	0xbf2288ac	-0.63489795
30	0xbf257b62	-0.6464139
31	0xbf50dfb1	-0.81591326

fc_net.2.weight f4 [32, 32]
0	0x3e9d5f11	0.30736592
1	0xbf6f4c4c	-0.93475795
2	0xbf1d912f	-0.6154966
3	0xbd70c93e	-0.05878567
4	0xbe31aa46	-0.1735011
5	0xbd913070	-0.07089317
6	0xbed8b156	-0.42322797
7	0x3ecb9b3a	0.39766866
8	0xbeb811e5	-0.35951152
9	0xbf0b906e	-0.5451726
10	0xbef4ad01	-0.47788242
11	0x3c6bf4e1	0.014401645
12	0x3e9bed6f	0.30454585
13	0x3d998465	0.074959554
14	0xbe62204f	-0.22082637
15	0x3f135387	0.5754933
16	0xbf65b236	-0.89725053
17	0xbdd4267e	-0.10358904
18	0x3e8ec228	0.27882504
19	0xbee10d2d	-0.43955365
20	0xbe2054c8	-0.15657341
21	0xbdf9fbad	-0.122062065
22	0xbeb09f60	-0.34496593
23	0xbf6aced7	-0.9172186
24	0xbf7823d9	-0.969297
25	0xbdf45e8a	-0.119320944
26	0xbf233d82	-0.6376573
27	0x3d377015	0.044784624
28	0xbed98115	-0.42481294
29	0xbf73a316	-0.95170724
30	0xbf026fc3	-0.50951785
31	0x3e635c79	0.22203244
32	0xbf238cca	-0.638867
33	0xbe83ac78	-0.2571752
34	0xbe850363	-0.25979146
35	0xbeedbbb2	-0.46432263
36	0x3e0d1260	0.13776541
37	0x3d94c081	0.0726328
38	0x3e9c9d69	0.30588844
39	0x3e2723e1	0.1632228
40	0xbdc63567	-0.096781544
41	0x3e7bbac7	0.24582969
42	0x3ebcfa6b	0.36909804
43	0xbd65bfb9	-0.056091044
44	0xbeed1952	-0.4630838
45	0xbdfdd871	-0.123947985
46	0x3ef08bf5	0.4698178
47	0x3ed50c17	0.41610786
48	0xbeb774a5	-0.3583118
49	0x3eef81de	0.46778768
50	0x3d137234	0.035997584
51	0xbf3e7415	-0.7439588
52	0xbe9c8a1b	-0.30574116
53	0xbf1cd32a	-0.6125971
54	0xbf32ab29	-0.6979242
55	0xbf5673c4	-0.83770394
56	0xbf200c12	-0.6251842
57	0x3e327099	0.17425765
58	0x3dd9cad7	0.10634392
59	0xbd7e22f4	-0.062045053
60	0xbde895dd	-0.11356709
61	0xbf948d3e	-1.1605604
62	0xbf070cd8	-0.52753973
63	0x3df1dc50	0.118095994
64	0x3f205a9d	0.62638265
65	0x3e883995	0.26606432
66	0xbf16b515	-0.5887006
67	0xbf9feefc	-1.2494807
68	0x3ed65386	0.41860598
69	0x3f5f5feb	0.87255734
70	0x3dc389a0	0.09547734
71	0x3e33582c	0.17514104
72	0xbe31e9cc	-0.17374343
73	0xbe90c077	-0.2827184
74	0xbf9ffb91	-1.2498647
75	0x3f0d968b	0.55307835
76	0x3ee88891	0.45416692
77	0xbebada8c	-0.36494863
78	0x3f8f2225	1.1182295
79	0xbe81b985	-0.25336853
80	0xbf521943	-0.82069796
81	0xbf480261	-0.7812863
82	0x3eb31bf9	0.3498228
83	0xbf3b9496	-0.732736
84	0x3f5a81d7	0.8535437
85	0xbf6c77fd	-0.9237059
86	0xbf036fc9	-0.51342446
87	0x3db32980	0.0874815
88	0xbedcda6d	-0.43135396
89	0xbe8aecce	-0.27133793
90	0x3f1b3eb2	0.6064254
91	0xbeb0d2a6	-0.34535712
92	0x3f988428	1.1915331
93	0x3f8927de	1.0715292
94	0xbef91697	-0.48650047
95	0x3ec48052	0.3837915
96	0x3e5e6719	0.21719016
97	0xbdbc5d41	-0.09197474
98	0xbf8fbd07	-1.1229562
99	0x3e683454	0.22676212
100	0x3e8165f2	0.2527309
101	0xbf00b1b8	-0.5027118
102	0xbe84deb5	-0.25951162
103	0x3e848387	0.25881597
104	0x3de5d31e	0.11221908
105	0xbe7e4d08	-0.24834073
106	0xbec8f558	-0.39249682
107	0xbf64a8ce	-0.89320076
108	0xbd273be0	-0.040828586
109	0x3e0565a0	0.13027048
110	0xbe8d605d	-0.27612582
111	0x3e4f7e85	0.20263107
112	0xbf882d88	-1.0638895
113	0xbf67862c	-0.90439105
114	0x3dd3664f	0.10322248
115	0xbe0f67f6	-0.14004502
116	0x3d7ffbc4	0.06249596
117	0x3e907442	0.28213698
118	0x3ebba065	0.3664581
119	0x3dca8af7	0.09889787
120	0xbe7190a6	-0.23590335
121	0x3f136423	0.5757467
122	0xbeccce91	-0.40001348
123	0x3edeebad	0.4353918
124	0x3e79613d	0.243535
125	0x3dbcac06	0.09212498
126	0xbe523b27	-0.20530377
127	0x3e3675b0	0.17818332
128	0x3f85a7f4	1.044188
129	0xbfd3a5cc	-1.6534972
130	0x3fb6146b	1.4224981
131	0x3e667c7e	0.22508428
132	0xbf1f6bea	-0.6227404
133	0x3e09c261	0.13453056
134	0x3f1197a0	0.56871986
135	0xbf5cfb18	-0.8632064
136	0x3d9ad1cc	0.07559547
137	0xbccf29ee	-0.025288548
138	0xbfa8935e	-1.3169973
139	0x3ef1de03	0.47239694
140	0x3f31724d	0.69315034
141	0xbba228ca	-0.00494871
142	0xbd21d030	-0.039505184
143	0xbfb022e8	-1.3760653
144	0xbc3f3443	-0.011670175
145	0x3cb25709	0.021770017
146	0xbe99849c	-0.29983985
147	0xbeb6cb71	-0.35702088
148	0xbf68be07	-0.9091496
149	0xbeae55fb	-0.34049973
150	0x3e6916dc	0.22762626
151	0x3eea720c	0.45790136
152	0x3fef0c43	1.8675617
153	0x3e0e6ff1	0.1390989
154	0xbe9682ad	-0.29396573
155	0xbf8aa77f	-1.0832366
156	0x3fa99d62	1.3251154
157	0x3fa3461b	1.275577
158	0xbf2821c5	-0.6567653
159	0xbe9fc34c	-0.31203687
160	0xbed6fe35	-0.4199082
161	0x3f0a3481	0.53986365
162	0x3dfcbdba	0.12340875
163	0x3f769a00	0.96328735
164	0x3e1f1fb7	0.15539442
165	0xbcd3c0b7	-0.02584873
166	0x3cf6e733	0.030139541
167	0x3eaee927	0.34162256
168	0x3dd3a6fd	0.10334585
169	0x3f10ac48	0.5651288
170	0x3ebad7c8	0.36492753
171	0x3e1aac5c	0.15104812
172	0xbf8d1aa6	-1.1023757
173	0xbf2a4b72	-0.6652137
174	0x3f1d7ac2	0.6151544
175	0x3e84e317	0.25954506
176	0xbe8cc74a	-0.27495795
177	0x3f44d928	0.76893854
178	0xbea25b74	-0.31710398
179	0xbfc6418c	-1.5488753
180	0xbe6877d0	-0.22701955
181	0xbdcc2340	-0.09967661
182	0xbe460d4f	-0.19341014
183	0xbf11a390	-0.568902
184	0xbf0cb3af	-0.54961675
185	0xbbfae775	-0.0076569864
186	0x3d70b34c	0.05876474
187	0x3eb606c0	0.35552025
188	0xbe942f82	-0.28942496
189	0xbe9e1c85	-0.30881134
190	0xbec6abba	-0.38802892
191	0x3e857489	0.26065472
192	0xbf028b93	-0.50994223
193	0xbd9ba14d	-0.07599125
194	0x3f244c12	0.64178574
195	0x3f86af14	1.052218
196	0xbd20f49e	-0.039295785
197	0xbe1917fe	-0.14950559
198	0x3e43a9c3	0.19107728
199	0x3ed68ec4	0.41905797
200	0x3fa3537a	1.275985
201	0x3f6cde66	0.92526853
202	0x3f2f2457	0.68414825
203	0xbe20e959	-0.15714015
204	0xbe02a454	-0.12757999
205	0x3dae109a	0.0849926
206	0xbf9cf368	-1.2261782
207	0x3e3ac697	0.18239819
208	0x3efc4a30	0.4927535
209	0x3e91e6ef	0.284965
210	0xbe0b8794	-0.13625938
211	0x3ecdb790	0.4017911
212	0x3e82950b	0.25504336
213	0x3f610c44	0.8790934
214	0x3ef2cf53	0.474238
215	0xbee3fae5	-0.44527355
216	0xbf7d8425	-0.9902976
217	0x3eac6a9f	0.33675095
218	0x3ed757f5	0.42059293
219	0x3eef76ea	0.46770412
220	0xbf37a21a	-0.7173172
221	0xbea10a1c	-0.31453025
222	0x3f61c62c	0.8819301
223	0x3ec8cb13	0.39217433
224	0xbfa1ff79	-1.2656089
225	0x3fbbe6db	1.4679826
226	0xbfc4b3f8	-1.5367422
227	0x3d734f75	0.059401948
228	0x3e62b284	0.22138411
229	0x3f48524e	0.78250587
230	0x3da7900a	0.0818177
231	0x3e27d1ca	0.16388622
232	0x3f27efea	0.65600455
233	0x3f1f9e31	0.62350756
234	0x3f812f35	1.0092531
235	0xbe6b90a1	-0.2300439
236	0xbf845f6c	-1.034162
237	0xbf92a40d	-1.1456314
238	0x3fe74320	1.806736
239	0xbe84ee1e	-0.2596292
240	0xbeb4fc5f	-0.35348794
241	0xbebc7d33	-0.3681427
242	0xbed374c2	-0.41300017
243	0xbfb1c72f	-1.3888911
244	0x3c121fda	0.008918727
245	0xbf615797	-0.88024276
246	0x3f94889d	1.1604191
247	0x3fcb5c19	1.5887481
248	0x3f931ec4	1.1493764
249	0xbd5f1f87	-0.054473426
250	0x3f5afd2f	0.8554258
251	0xbf85c75f	-1.0451468
252	0x3f5e1e3b	0.8676488
253	0x3e84a453	0.2590662
254	0x3f1caa5b	0.6119744
255	0x3d8e6864	0.06953505

fc_net.2.bias f4 [32]
0	0x3e992b7d	0.2991599
1	0x3f4efe33	0.8085663
2	0x3ea16163	0.31519613
3	0x3ca0ee16	0.019644778
4	0x3e55735c	0.20844787
5	0x3f08299c	0.5318849
6	0xbec1310a	-0.37732726
7	0x3d1b4282	0.037905224
8	0x3ee6942f	0.4503493
9	0x3e5d3685	0.21602829
10	0xbf7ccb56	-0.98747766
11	0x3e326fb6	0.17425427
12	0x3ea1e30c	0.31618536
13	0xbe9a2360	-0.30105114
14	0x3e8eaa29	0.27864197
15	0x3f31dd09	0.694779
16	0xbe7f201f	-0.24914597
17	0x3f139b32	0.57658684
18	0xbee5bf0e	-0.44872326
19	0xbeb42ddd	-0.3519124
20	0xbf798e83	-0.9748308
21	0xbe52b38d	-0.20576306
22	0xbe4d971e	-0.20077178
23	0xbc4b96f0	-0.012426123
24	0xbf13f494	-0.5779507
25	0xbf9b1c64	-1.2118039
26	0x3f12b086	0.57300603
27	0x3f2cffb3	0.67577666
28	0xbee02f12	-0.43785912
29	0xbf55b51f	-0.83479494
30	0x3df1210e	0.11773883
31	0x3f28c7f6	0.65930116

action_head.weight f4 [5, 32]
0	0xbf47aff8	-0.7800288
1	0xbf8a5608	-1.0807505
2	0x3f9407c1	1.1564866
3	0xbf62776e	-0.88463485
4	0x3f9787fc	1.1838374
5	0xbf81c5d0	-1.0138493
6	0xbf88a4dc	-1.0675311
7	0x3fb11745	1.3835226
8	0xbfa0cadc	-1.2561908
9	0xbf8ff632	-1.1247008
10	0xc0066775	-2.1000645
11	0xbfe2b935	-1.7712771
12	0x3fc5bf7e	1.5449064
13	0xbf8e9101	-1.1138002
14	0xbfba5040	-1.455574
15	0x3fa39057	1.2778424
16	0xbfec98da	-1.8484147
17	0x3f4ee213	0.8081371
18	0xbfb0ad5b	-1.3802904
19	0xbfa7ad9a	-1.3099854
20	0xbf34ecce	-0.70673835
21	0x3f75ca42	0.96011746
22	0x3fa35f2c	1.2763419
23	0xbf9201d8	-1.1406813
24	0xbfb6701a	-1.4252961
25	0xbfce5f0b	-1.6122755
26	0x3f74c915	0.95619327
27	0x3f951b7b	1.1649011
28	0xbfd1b337	-1.6382817
29	0xbfdec3b9	-1.740348
30	0x3f89635a	1.0733445
31	0xbfa34362	-1.2754939
32	0xbf50c429	-0.81549317
33	0xbf96c82f	-1.1779841
34	0x3f904598	1.1271238
35	0xbf5b356d	-0.85628396
36	0x3fa1b28d	1.2632614
37	0xbfa0f001	-1.2573243
38	0xbf948d71	-1.1605664
39	0x3fc0409b	1.5019716
40	0xbf9efd5f	-1.2421073
41	0xbfab18f9	-1.3366996
42	0xc0040390	-2.0627174
43	0xbfc21d6e	-1.5165231
44	0x3fc2aa9c	1.5208316
45	0xbf899247	-1.0747765
46	0xbfa7ea25	-1.311833
47	0x3f9d5236	1.2290714
48	0xbfe98597	-1.8243893
49	0x3f4be9e0	0.7965374
50	0xbfaf3ab9	-1.3689796
51	0xbf97204f	-1.1806735
52	0xbf50ca39	-0.8155857
53	0x3f7d48e5	0.98939353
54	0x3f8f91c8	1.1216364
55	0xbf90640e	-1.1280534
56	0xbfb582be	-1.4180524
57	0xbfded628	-1.7409105
58	0x3f85ebd3	1.0462593
59	0x3f8c8d39	1.0980598
60	0xbfc0128d	-1.5005661
61	0xbfe0c7af	-1.7560939
62	0x3f8df7ec	1.1091285
63	0xbf94630a	-1.1592724
64	0xbf477751	-0.7791644
65	0xbf9af7bb	-1.2106851
66	0x3f8dc83c	1.1076732
67	0xbf70351d	-0.93831044
68	0x3f9805a5	1.1876723
69	0xbfa13cdf	-1.2596701
70	0xbf95f3c4	-1.1715016
71	0x3fb4dc9e	1.4129827
72	0xbfa9c90d	-1.3264481
73	0xbf8ad770	-1.0846996
74	0xbfefbfb7	-1.8730382
75	0xbfe8c7af	-1.8185939
76	0x3fc3ab65	1.528668
77	0xbf99bb0b	-1.2010206
78	0xbfae1a5f	-1.3601798
79	0x3f8f9de6	1.1220062
80	0xbfeb32d4	-1.8374887
81	0x3f4e4c03	0.80584735
82	0xbfb4dc7f	-1.412979
83	0xbf7f82d4	-0.99809
84	0xbf3ffbda	-0.7499367
85	0x3f530037	0.824222
86	0x3f95ca00	1.170227
87	0xbf98c729	-1.1935779
88	0xbfad2d16	-1.3529384
89	0xbfc3f2a9	-1.5308429
90	0x3f8fc759	1.1232711
91	0x3fabdd38	1.3426886
92	0xbfbbb8e6	-1.4665802
93	0xbfe825e0	-1.8136559
94	0x3f85b7eb	1.0446752
95	0xbf84529d	-1.0337712
96	0xbf517927	-0.8182549
97	0xbf806fe3	-1.0034145
98	0x3f89e42f	1.0772761
99	0xbf51005e	-0.81641185
100	0x3f908364	1.1290097
101	0xbf7e3484	-0.9929888
102	0xbf9130f0	-1.134306
103	0x3fb4c7a0	1.4123421
104	0xbf9eddd3	-1.2411445
105	0xbf9ebba0	-1.2401009
106	0xbfdbdceb	-1.7176794
107	0xbfbea6b8	-1.4894629
108	0x3fc0a3c9	1.5049983
109	0xbf9ad16a	-1.2095158
110	0xbf9803aa	-1.1876118
111	0x3f952014	1.1650414
112	0xbff1d493	-1.8892998
113	0x3f40a2d0	0.7524843
114	0xbfa69465	-1.3014036
115	0xbf8e2c26	-1.1107223
116	0xbf98914e	-1.1919343
117	0x3f66de2a	0.90182745
118	0x3f90c77a	1.1310875
119	0xbf893b2a	-1.072118
120	0xbfabb860	-1.3415642
121	0xbfce237d	-1.610458
122	0x3f69a33e	0.9126471
123	0x3fa07dd0	1.2538395
124	0xbfbc9bb5	-1.4735018
125	0xbfe2d0b8	-1.7719946
126	0x3f8eeb1b	1.1165498
127	0xbfbff539	-1.4996711
128	0xbf5a3824	-0.85241914
129	0xbf955b99	-1.1668578
130	0x3f88e20b	1.0693983
131	0xbf4720c1	-0.77784353
132	0x3fa1dd12	1.264559
133	0xbfc0d3af	-1.5064601
134	0xbf824821	-1.0178262
135	0x3fbc7492	1.4723074
136	0xbfa65bfa	-1.2996819
137	0xbfa75975	-1.3074175
138	0xbffee5a4	-1.9913831
139	0xbfdb2255	-1.7119852
140	0x3fc453c4	1.5338063
141	0xbf8b9606	-1.0905159
142	0xbfa0e260	-1.2569084
143	0x3f96ff17	1.1796597
144	0xbfebc8f5	-1.8420702
145	0x3f5ad2b4	0.8547776
146	0xbfb438f7	-1.4079884
147	0xbf8dc440	-1.1075516
148	0xbf09cf46	-0.538319
149	0x3f70ad94	0.9401486
150	0x3f8ec574	1.1154008
151	0xbf871959	-1.055461
152	0xbfb6be1f	-1.427677
153	0xbfce8cd5	-1.6136729
154	0x3fa5298e	1.2903306
155	0x3f8a3b9b	1.079944
156	0xbfd52f25	-1.6655012
157	0xbfe7e85f	-1.8117789
158	0x3f839212	1.0278952
159	0xbf7135f2	-0.9422294

action_head.bias f4 [5]
0	0x3e9d6aa1	0.30745414
1	0x3e8a5c9c	0.2702378
2	0x3f0347f0	0.5128164
3	0x3f10c1ec	0.565459
4	0x3e705fad	0.23473997
