experiments/exp-20200629-10-09-49/weights/weights-0.pth (torch_old, 7195 bytes, 6 tensors)

fc_net.0.weight f4 [32, 8]
0.747241 -0.4110685 0.8751733 0.65004766 -0.635749 -0.18001485 -0.32691616 0.8072046
0.7780758 0.8761754 -1.0213026 -0.015696978 0.43332264 -0.23407193 1.2883352 -0.32894087
-0.98541224 -0.17156379 0.9842127 0.5901723 -0.43012953 -0.5062671 -0.7551464 0.67190254
-0.27004102 -0.1968338 -1.2727017 0.65397966 0.07404194 -1.0732185 1.7102469 0.8498735
0.39185476 -1.1118772 -0.38440672 0.03231522 1.1985272 0.64421195 -0.19675373 -0.22833434
-0.21529524 0.37588704 0.3103478 -0.26108852 -0.42978317 -1.3501151 1.1108955 -0.094686
0.92517644 -0.39793447 -0.48377544 -0.849092 0.14169933 -0.43001905 0.19906618 -0.13957688
0.6031436 -0.2894377 -1.8801687 0.8117851 0.29404968 -0.34179547 0.30412582 0.29267675
0.9727529 -0.86319345 -0.32644495 0.57393247 -0.5925631 -0.72643983 0.7223211 1.1149389
0.24803877 -0.20095164 0.36200914 0.71268165 1.0784265 0.23155066 -0.98040295 -0.29145095
0.6835614 0.89514154 0.6658964 -0.41129026 0.5703017 -0.77054256 -0.040589478 -0.81524163
-0.31583044 -0.50849843 0.011594595 0.17785333 -0.90260506 -0.33217984 1.2300098 0.57140833
-0.32166544 0.6088885 0.04659398 -0.76479965 -0.1262162 -0.8563429 0.02873377 -0.25402007
-1.2021173 0.70320433 -0.16015401 0.5165643 -0.4366441 0.050392173 0.38975337 -0.6558422
0.02782751 0.45663738 -1.285216 -1.3739071 0.72024053 0.026698643 -0.31215936 1.7253128
-0.5687412 0.211447 0.10069415 1.2176472 -0.33651966 -0.4997231 -0.37813783 -0.12844096
-0.56737864 -0.3671972 -1.1526965 -1.7366716 0.31436914 0.47949684 -0.066802815 0.39868617
-0.65795696 -0.56592095 0.56940764 -0.0171999 -0.12816308 -0.06346983 -0.5614174 -0.8910678
0.71403664 1.601219 -0.44969937 0.3389431 -0.27312347 -0.35521227 -0.37715992 0.67567194
0.96524096 0.73824847 -0.70854497 -0.3465907 0.8577796 0.021512076 -0.026568677 -0.52512974
-0.5671673 -1.525083 0.34212312 0.3373995 -0.28538266 0.19466275 0.43539435 -0.122740164
0.19865602 -0.485063 -0.3682973 0.60827035 -0.56663257 1.0418136 -1.0405583 -0.2709248
0.8933226 0.57558954 -0.2785801 0.56294763 0.0022459184 0.49365366 0.19634688 -0.08503433
-1.5768806 0.4589015 0.6066592 -0.56209207 0.9791695 1.0178446 -0.076453336 0.44063467
0.2752446 0.63471496 -0.77065635 0.24441501 0.15212527 -1.3143233 -0.02601112 -0.17353912
-1.9515587 -1.682461 0.42486486 0.9339627 0.65635353 -0.32305336 0.9736078 0.85655516
-0.7453632 0.7268507 -0.48467538 -0.03544085 -1.0043446 -0.75975454 -0.38951695 -0.6782742
-0.05506396 0.5897594 0.6788324 0.7528858 -0.018435363 -0.8913144 1.6090004 -0.013001547
-0.9641491 0.84902745 0.5605663 -1.1452533 -0.14613643 0.4870703 -0.2756449 -0.09095097
1.3174806 -0.07914539 -1.177319 0.4333108 -0.51123065 0.02339548 0.93336415 0.48946506
1.4365212 -0.6708473 -0.055523414 0.06709534 0.06319 -0.045440014 -0.19236839 0.65615773
-0.32548752 -0.19436543 -0.26093423 -0.16615793 0.06875464 -1.5546918 -0.74138916 0.4716229
00000000: 304b 3f3f 9277 d2be 5b0b 603f 8669 263f
00000010: 72c0 22bf d055 38be 8e61 a7be f6a4 4e3f
00000020: fa2f 473f 084d 603f 0bba 82bf f396 80bc
00000030: 77dc dd3e 8db0 6fbe 2be8 a43f f06a a8be
00000040: fa43 7cbf 6bae 2fbe 5df5 7b3f 8815 173f
00000050: f039 dcbe b89a 01bf 4651 41bf ce01 2c3f
00000060: d142 8abe cd8e 49be e4e7 a2bf 366b 273f
00000070: 4da3 973d 395f 89bf 5fe9 da3f 4f91 593f
00000080: 30a1 c83e fe51 8ebf f5d0 c4be f75c 043d
00000090: 5769 993f 13eb 243f cf79 49be 7ad0 69be
000000a0: 5b76 5cbe 4474 c03e e8e5 9e3e 65ad 85be
000000b0: 8a0c dcbe 92d0 acbf d331 8e3f bcea c1bd
000000c0: 5dd8 6c3f 11be cbbe 6ab1 f7be 185e 59bf
000000d0: a119 113e 752b dcbe 01d8 4b3e 3eed 0ebe
000000e0: 9e67 1a3f 2e31 94be 5ea9 f0bf 26d1 4f3f
000000f0: ae8d 963e d1ff aebe 61b6 9b3e bad9 953e
00000100: 5606 793f 3ffa 5cbf cb23 a7be 3ded 123f
00000110: 37b2 17bf f6f7 39bf 09ea 383f 51b6 8e3f
00000120: e0fd 7d3e 44c6 4dbe 4359 b93e 4e72 363f
00000130: e109 8a3f 9e1b 6d3e b0fb 7abf 0f39 95be
00000140: e1fd 2e3f ff27 653f 3078 2a3f a394 d2be
00000150: 4bff 113f 4742 45bf 2741 26bd adb3 50bf
00000160: 87b4 a1be f42c 02bf 42f7 3d3c 2f1f 363e
00000170: 2011 67bf 7a13 aabe f670 9d3f d147 123f
00000180: 55b1 a4be 1ee0 1b3f 54d9 3e3d e9c9 43bf
00000190: d23e 01be 4a39 5bbf 1563 eb3c eb0e 82be
000001a0: fbde 99bf 3305 343f 6aff 23be 8f3d 043f
000001b0: d18f dfbe 0668 4e3d c18d c73e 46e5 27bf
000001c0: 85f6 e33c 60cc e93e f581 a4bf 30dc afbf
000001d0: af61 383f 1db7 da3c 5ad3 9fbe 0dd7 dc3f
000001e0: 0699 11bf 9085 583e bc38 ce3d dddb 9b3f
000001f0: 4e4c acbe b5db ffbe 489b c1be 0786 03be
00000200: ba3f 11bf 4501 bcbe 8f8b 93bf 414b debf
00000210: fef4 a03e 9c80 f53e eacf 88bd 9820 cc3e
00000220: de6f 28bf 32e0 10bf b3c4 113f cee6 8cbc
00000230: 2f3d 03be 78fc 81bd 0db9 0fbf 051d 64bf
00000240: 1bcb 363f bff4 cc3f ff3e e6be f389 ad3e
00000250: d7d6 8bbe 62de b5be 1b1b c1be d6f8 2c3f
00000260: 081a 773f dafd 3c3f 3463 35bf 5674 b1be
00000270: 7297 5b3f 183a b03c 8ea6 d9bc e76e 06bf
00000280: e031 11bf eb35 c3bf c32a af3e a1bf ac3e
00000290: ad1d 92be ac55 473e 02ec de3e 325f fbbd
000002a0: 7c6c 4b3e 2d5a f8be 7791 bcbe 9bb7 1b3f
000002b0: d50e 11bf 265a 853f 0431 85bf a8b6 8abe
000002c0: cab0 643f d659 133f 0da2 8ebe 561d 103f
000002d0: 4230 133b 2cc0 fc3e 280f 493e 7b26 aebd
000002e0: 39d7 c9bf 23f5 ea3e 044e 1b3f 44e5 0fbf
000002f0: daaa 7a3f bb48 823f 9193 9cbd de9a e13e
00000300: dcec 8c3e ae7c 223f bc49 45bf ee47 7a3e
00000310: bac6 1b3e bf3b a8bf 4615 d5bc 3db4 31be
00000320: adcc f9bf e25a d7bf e387 d93e 2e18 6f3f
00000330: c906 283f 4067 a5be 5c3e 793f 3347 5b3f
00000340: 1fd0 3ebf e312 3a3f 5f27 f8be 6d2a 11bd
00000350: 5d8e 80bf 467f 42bf c46e c7be 61a3 2dbf
00000360: bf8a 61bd 79fa 163f f6c7 2d3f 20bd 403f
00000370: c205 97bc 2e2d 64bf baf3 cd3f 7104 55bc
00000380: 7ad2 76bf dd59 593f 4681 0f3f a997 92bf
00000390: caa4 15be 4761 f93e 5421 8dbe 8144 babd
000003a0: 34a3 a83f fa16 a2bd 64b2 96bf eada dd3e
000003b0: 03e0 02bf e1a7 bf3c f4f0 6e3f 2a9b fa3e
000003c0: eddf b73f a6bc 2bbf 856c 63bd 4869 893d
000003d0: c269 813d 4f1f 3abd 38fc 44be f4f9 273f
000003e0: 4da6 a6be bb07 47be 2c99 85be 4e25 2abe
000003f0: 3ccf 8c3d 2400 c7bf aecb 3dbf 8f78 f13e

fc_net.0.bias f4 [32]
0.7448287 -0.79779184 -1.6181704 0.6204614 0.013613532 -0.6889154 0.92739445 -0.5306886
1.1056944 1.092916 -0.99768436 -0.09735981 -0.8539283 1.0946099 1.7685454 0.9774826
0.32833627 -0.47231168 0.32729855 -0.014129954 -0.021689901 -0.11457679 0.9432507 -0.46974984
0.35038784 -0.41293073 -1.1595749 0.121474296 0.82021546 -1.2283914 -1.5297598 -0.04486685
00000000: 18ad 3e3f 163c 4cbf 3520 cfbf 8fd6 1e3f
00000010: 4b0b 5f3c c25c 30bf b969 6d3f 35db 07bf
00000020: 6587 8d3f ace4 8b3f 3e68 7fbf 9464 c7bd
00000030: 0c9b 5abf 2d1c 8c3f b25f e23f 4d3c 7a3f
00000040: b11b a83e d6d2 f1be ad93 a73e 5381 67bc
00000050: 05af b1bc 3ca7 eabd e178 713f 0d83 f0be
00000060: 0966 b33e a86b d3be f36c 94bf 84c7 f83d
00000070: a4f9 513f ee3b 9dbf 2bcf c3bf 4dc6 37bd

fc_net.2.weight f4 [32, 32]
0.0339701 0.36391273 0.22810562 0.2883507 -0.21947637 -0.82225466 -0.11906257 -1.7785364
-0.69133216 0.17319393 -0.1008434 -0.38721627 -0.016786344 0.34289452 0.063041344 -0.37164056
-0.0041202344 -0.06720031 0.6184477 0.2836144 -0.14380565 0.5063494 0.18585183 0.13632667
-1.0407869 -0.81230277 1.0201601 -0.28956014 0.75075173 0.06234791 0.347125 -0.19050439
1.0971775 -0.62887806 0.4597162 -0.8267338 -1.1274841 0.83223426 0.95215726 1.0280647
-0.4705381 -1.22577 0.16989316 0.37305176 -0.3249908 0.42798924 0.61766917 0.13796139
0.9528296 -1.1303295 -0.021240756 0.8075503 0.95492476 -0.8726842 0.14635043 0.40547425
-0.61603063 1.0224122 0.55068225 0.32540846 0.537731 1.2371389 1.1071078 0.22535627
-0.6102225 0.4281256 0.2286316 0.21254605 -0.3518463 0.8050329 -0.7779731 -1.2211722
0.18503593 0.46296647 0.72005206 -0.6524961 0.92913496 0.8107456 -0.1944259 0.867867
0.416477 0.799703 -0.35827595 -0.1199413 -0.5820145 -0.3956414 -0.3986287 -0.69655883
0.03541787 -0.94739556 0.2667408 0.87588525 -0.5772844 -0.43632662 -0.7796768 0.5846217
-0.35086417 0.2522396 0.35273662 -0.14781125 -1.7015244 0.50767773 0.68184507 -0.47354946
-0.7869987 -0.07480406 0.02372888 -0.63820577 -0.30901596 0.08676528 0.40709037 0.37057903
0.56793374 0.63640094 0.7038874 0.7455972 0.39665136 -1.4184048 0.6045397 0.6285419
-0.44050235 -1.4927708 -0.05581554 0.23087238 1.2494569 -0.060960945 0.47945535 0.55489194
0.7714983 -0.634466 0.60148555 -0.9278823 0.4640268 0.25957793 1.0434672 1.7104492
-0.115176335 -0.25597367 0.4321666 -0.16289851 -0.7164967 -0.073312916 -1.8343606 -0.035744313
0.06403459 0.83749694 1.1774684 0.7204134 0.883065 0.82295334 1.3242611 0.4443747
0.21907711 0.9758298 1.0917133 -1.3125919 0.28477 1.3746426 1.4272435 0.52539057
-0.37073156 0.7960475 1.2575084 0.29636914 0.16339368 -0.8221998 -0.69511795 -0.39223042
-0.56286895 0.2699952 0.026331771 1.2570044 0.20054995 -0.18967803 0.94249123 -0.0038496659
0.8381222 -0.0570876 -0.13579375 0.34219804 -1.6703806 0.4282706 -0.090030044 0.97867495
0.16970491 0.46925747 1.2213386 -0.5439693 0.27562192 0.62956405 0.6113144 0.098597445
0.49825165 -1.0320827 -0.07633629 -0.26396382 -0.032168593 0.29256192 0.8812304 0.7067063
0.48033178 0.07204759 -0.42846528 -0.29260683 -0.88451535 0.78286445 -0.835513 0.20578554
0.082663946 -0.038522903 0.36849847 0.10892341 0.90200853 0.033356536 0.6351893 0.4749909
0.27234313 0.47561553 0.62041837 -0.15840259 0.474072 -0.20747282 -0.020850213 0.47698233
0.80781174 0.12730043 2.0955737 -2.2506716 -1.0669842 1.0667549 1.059923 1.2679392
-1.6256773 -2.4787889 1.4912349 -0.2029669 0.6868919 0.27623507 0.39078456 -0.3621897
1.472205 -1.4870961 0.7707353 1.3403318 0.4823692 -2.1342554 -0.2509201 1.1802038
-0.79890513 0.34142393 0.95781577 0.63539153 0.03496472 2.1091666 2.4863796 1.0751989
00000000: 3b24 0b3d c552 ba3e 8594 693e b4a2 933e
00000010: 6abe 60be 487f 52bf 14d7 f3bd 15a7 e3bf
00000020: 25fb 30bf c059 313e fc86 cebd 3641 c6be
00000030: 8483 89bc df8f af3e d21b 813d ac47 bebe
00000040: 0803 87bb 51a0 89bd 9752 1e3f e835 913e
00000050: ca41 13be 1da0 013f f14f 3e3e 3899 0b3e
00000060: 8138 85bf 13f3 4fbf 9b94 823f 3a41 94be
00000070: 4431 403f 8660 7f3d 5eba b13e 9513 43be
00000080: 5070 8c3f 27fe 20bf ec5f eb3e d4a4 53bf
00000090: 6651 90bf 4e0d 553f 94c0 733f a097 833f
000000a0: 5fea f0be 08e6 9cbf 79f8 2d3e a400 bf3e
000000b0: 3265 a6be 6821 db3e 911f 1e3f c045 0d3e
000000c0: a4ec 733f a3ae 90bf 1801 aebc 9ebb 4e3f
000000d0: f375 743f 3b68 5fbf e3dc 153e 529a cf3e
000000e0: 2fb4 1dbf 67de 823f 83f9 0c3f f09b a63e
000000f0: bda8 093f 915a 9e3f b5b5 8d3f cbc3 663e
00000100: 8b37 1cbf 4733 db3e 671e 6a3e aca5 593e
00000110: 3325 b4be a316 4e3f 3f29 47bf 5f4f 9cbf
00000120: 0f7a 3d3e f109 ed3e 5555 383f fc09 27bf
00000130: cadb 6d3f 068d 4f3f 9517 47be 882c 5e3f
00000140: 793c d53e 56b9 4c3f f26f b7be c9a3 f5bd
00000150: e7fe 14bf 8291 cabe 1019 ccbe ae51 32bf
00000160: 5412 113d 8488 72bf 4092 883e 043a 603f
00000170: e9c8 13bf 3466 dfbe e698 47bf c5a9 153f
00000180: 78a4 b3be 8d25 813e e599 b43e d55b 17be
00000190: 8dcb d9bf 2bf7 013f 668d 2e3f 1375 f2be
000001a0: bf78 49bf df32 99bd 1163 c23c 7461 23bf
000001b0: 5737 9ebe ffb1 b13d 266e d03e 89bc bd3e
000001c0: 1b64 113f 2ceb 223f f731 343f 75df 3e3f
000001d0: e315 cb3e 4a8e b5bf 1dc3 1a3f 1fe8 203f
000001e0: 8689 e1be 1d13 bfbf d69e 64bd cf69 6c3e
000001f0: 34ee 9f3f 2fb2 79bd 2c7b f53e 660d 0e3f
00000200: ea80 453f 5d6c 22bf f5fa 193f b289 6dbf
00000210: ec94 ed3e 66e7 843e 5590 853f 00f0 da3f
00000220: 92e1 ebbd fb0e 83be f144 dd3e dece 26be
00000230: 546c 37bf 1525 96bd 54cc eabf a168 12bd
00000240: 9124 833d 3366 563f 49b7 963f 036d 383f
00000250: 8c10 623f 12ad 523f 6381 a93f 1585 e33e
00000260: c055 603e fbcf 793f 43bd 8b3f 0303 a8bf
00000270: 60cd 913e 4af4 af3f eaaf b63f ff7f 063f
00000280: 87d0 bdbe c5c9 4b3f 09f6 a03f b2bd 973e
00000290: ac50 273e b07b 52bf 40f3 31bf 6dd2 c8be
000002a0: 2e18 10bf d03c 8a3e bab5 d73c 85e5 a03f
000002b0: f75c 4d3e f53a 42be 1b47 713f ad4a 7cbb
000002c0: 2d8f 563f b0d4 69bd 840d 0bbe 9534 af3e
000002d0: 08cf d5bf 4946 db3e ac61 b8bd 718a 7a3f
000002e0: 20c7 2d3e 8442 f03e d354 9c3f 9241 0bbf
000002f0: 511e 8d3e 1c2b 213f 1a7f 1c3f 75ed c93d
00000300: d71a ff3e 491b 84bf 3356 9cbd 4426 87be
00000310: 37c3 03bd adca 953e 5198 613f b4ea 343f
00000320: 0cee f53e b08d 933d cd5f dbbe 90d0 95be
00000330: 996f 62bf ce69 483f 2ee4 55bf 72b9 523e
00000340: b74b a93d 31ca 1dbd d5ab bc3e 3d13 df3d
00000350: 08ea 663f dda0 083d c49b 223f 0232 f33e
00000360: 8f70 8b3e e183 f33e bdd3 1e3f 4a34 22be
00000370: 91b9 f23e c173 54be 11ce aabc 0737 f43e
00000380: c0cc 4e3f 0b5b 023e e11d 0640 010b 10c0
00000390: f092 88bf 6d8b 883f 8fab 873f d54b a23f
000003a0: 3216 d0bf 7aa4 1ec0 c9e0 be3f 8ed6 4fbe
000003b0: 26d8 2f3f af6e 8d3e ea14 c83e ee70 b9be
000003c0: 3771 bc3f 2a59 bebf e94e 453f fe8f ab3f
000003d0: 19f9 f63e a497 08c0 9978 80be eb10 973f
000003e0: 0c85 4cbf 1ecf ae3e 6a33 753f 05a9 223f
000003f0: 2b37 0f3d 96fc 0640 d820 1f40 1ea0 893f

fc_net.2.bias f4 [32]
0.13107063 0.11552712 0.04949831 0.5117601 -0.7672677 -0.87720096 0.47221237 -1.1823704
-0.31177688 0.054169834 -0.5093067 -0.016394192 -0.12325743 0.24575081 -1.1062369 -1.4173584
0.5486892 -1.4190086 0.32497376 0.3223932 0.39787915 -0.5568188 -1.3828466 -1.4810449
-0.64942145 0.30923197 -0.054252613 0.56490177 0.25304368 0.8390998 -0.97665143 -0.22150885
00000000: 6137 063e 7c99 ec3d bdbe 4a3d b602 033f
00000010: a86b 44bf 3e90 60bf d2c5 f13e ea57 97bf
00000020: 38a1 9fbe 30e1 5d3d ed61 02bf 1d4d 86bc
00000030: 646e fcbd 1aa6 7b3e 2c99 8dbf 006c b5bf
00000040: e576 0c3f 13a2 b5bf f662 a63e b910 a53e
00000050: d1b6 cb3e ad8b 0ebf 1e01 b1bf e192 bdbf
00000060: 7c40 26bf a753 9e3e fd37 5ebd 679d 103f
00000070: f18e 813e 3fcf 563f d405 7abf 37d3 62be

action_head.weight f4 [5, 32]
0.9666687 -1.2657 1.3522276 -1.0148587 -1.2142401 1.3021923 -0.8274798 -2.3552754
1.817464 1.6788291 1.6816292 -1.226488 1.0108087 -0.8671185 -1.5283972 1.9039152
-0.8126253 -1.9202523 -0.72611254 -0.57233286 1.4832819 1.3570503 -2.0366843 -2.9758487
-1.5387955 1.0520756 -1.4049503 1.1120552 -1.0627652 -1.1202341 -1.5421662 1.0030953
1.1549002 -1.177446 1.3819243 -0.9513547 -1.4591569 1.34644 -1.0246397 -2.5107934
1.7912383 1.6789564 2.0977988 -1.2631712 1.0497562 -0.80374783 -1.3573012 1.7289922
-0.45115453 -2.2661464 -0.55960464 -0.8953338 1.406321 1.2983319 -2.1487958 -3.1393983
-1.572807 1.0037 -1.3748761 0.88113546 -1.0512855 -0.9925895 -1.4330249 0.8310137
0.99719197 -1.2783306 1.2492234 -1.0732957 -1.1248246 1.4971709 -0.617047 -2.6468987
1.9576446 1.6990985 2.0175753 -1.1624527 1.0508183 -0.76246476 -1.7091446 2.0665095
-0.9830129 -1.679791 -1.0047774 -0.4636176 1.5939447 1.563729 -2.243004 -2.8614426
-1.6086407 1.0723733 -1.5385318 1.3410758 -0.9974002 -1.1316141 -1.5873269 0.4967311
1.259752 -1.3301157 1.2561535 -0.97121173 -1.3059412 1.4858152 -0.86140615 -2.8151822
2.0315318 1.5917616 2.058736 -1.2683184 0.9768116 -0.7972983 -1.625139 2.0567412
-0.65124947 -1.8579456 -0.6960361 -0.5267107 1.4931312 1.2749983 -1.9696134 -2.9453163
-1.6477119 1.0901725 -1.4703981 1.0987968 -1.1213852 -1.1219971 -1.6092994 0.6311884
0.9226187 -1.2533593 1.364613 -1.0322868 -1.2285147 1.1858398 -0.7342507 -2.2802377
1.7462845 1.715313 1.9705137 -1.1185286 1.079589 -0.9634382 -1.385797 1.3214756
-0.92902386 -2.45734 -0.78288484 -0.7899537 1.2910427 1.7807424 -1.9940615 -2.8623295
-1.566065 1.0174521 -1.2965784 1.0399866 -0.9636875 -1.0401639 -1.6895847 0.9995975
00000000: 9a77 773f 7502 a2bf cb15 ad3f e4e6 81bf
00000010: 386c 9bbf 3dae a63f b7d5 53bf d5bc 16c0
00000020: a9a2 e83f dfe3 d63f a03f d73f 8ffd 9cbf
00000030: 2e62 813f 7afb 5dbf 85a2 c3bf 7eb3 f33f
00000040: 3608 50bf d4ca f5bf 83e2 39bf 6884 12bf
00000050: 2edc bd3f d3b3 ad3f 0959 02c0 4e74 3ec0
00000060: 40f7 c4bf 6aaa 863f 69d5 b3bf d357 8e3f
00000070: b108 88bf d563 8fbf b465 c5bf 6d65 803f
00000080: c5d3 933f 8db6 96bf e5e2 b03f fb8b 73bf
00000090: a7c5 babf 2558 ac3f 6527 83bf d7b0 20c0
000000a0: 4c47 e53f 0be8 d63f 5642 0640 98af a1bf
000000b0: 695e 863f 6bc2 4dbf 0cbc adbf 9e4f dd3f
000000c0: bafd e6be 8b08 11c0 4042 0fbf 9934 65bf
000000d0: 5402 b43f bd2f a63f df85 09c0 e7eb 48c0
000000e0: bd51 c9bf 3e79 803f f1fb afbf 1892 613f
000000f0: 8690 86bf 581a 7ebf 5c6d b7bf 50bd 543f
00000100: f947 7f3f 56a0 a3bf 8de6 9f3f c161 89bf
00000110: 41fa 8fbf 4ca3 bf3f cbf6 1dbf ca66 29c0
00000120: 1994 fa3f 0f7c d93f f41f 0140 40cb 94bf
00000130: 3781 863f e430 43bf 40c5 dabf b141 0440
00000140: bca6 7bbf 6403 d7bf 8c9c 80bf 495f edbe
00000150: 6106 cc3f 4628 c83f 618d 0fc0 e021 37c0
00000160: f0e7 cdbf 8743 893f 9cee c4bf 5fa8 ab3f
00000170: 9f55 7fbf bbd8 90bf 872d cbbf 8a53 fe3e
00000180: 8e3f a13f 3b41 aabf a3c9 a03f 55a1 78bf
00000190: 1529 a7bf 312f be3f 1d85 5cbf f22b 34c0
000001a0: 9e04 0240 d8be cb3f 55c2 0340 4258 a2bf
000001b0: 5310 7a3f be1b 4cbf 8e04 d0bf a6a1 0340
000001c0: 49b8 26bf 29d1 edbf 6c2f 32bf 83d6 06bf
000001d0: ec1e bf3f 2533 a33f 4b1c fcbf 1080 3cc0
000001e0: 39e8 d2bf c68a 8b3f 0136 bcbf 60a5 8c3f
000001f0: 8d89 8fbf 9a9d 8fbf 86fd cdbf 9095 213f
00000200: bd30 6c3f 146e a0bf a4ab ae3f f921 84bf
00000210: f83f 9dbf 99c9 973f dbf7 3bbf 6aef 11c0
00000220: 4086 df3f 608f db3f cb39 fc3f f22b 8fbf
00000230: f92f 8a3f e3a3 76bf cc61 b1bf 1d26 a93f
00000240: 82d4 6dbf 0f45 1dc0 246b 48bf 683a 4abf
00000250: e340 a53f 5eef e33f 683d ffbf 6830 37c0
00000260: d174 c8bf df3b 823f 48f6 a5bf 481e 853f
00000270: 39b4 76bf 1724 85bf 5044 d8bf 9fe5 7f3f

action_head.bias f4 [5]
0.13629319 -0.69797695 0.08632784 -0.6564267 0.30340165
00000000: 7190 0b3e 9eae 32bf a7cc b03d 950b 28bf
00000010: 7657 9b3e
