experiments/exp-20200629-10-09-49/weights/weights-1.pth (torch_old, 7451 bytes, 6 tensors)

fc_net.0.weight f4 [32, 10]
0	0x3f3da82f	0.7408475
1	0xbe0e4d01	-0.13896562
2	0x3e873ad4	0.2641207
3	0x3ea0fc13	0.31442317
4	0xbe3efa1b	-0.18650095
5	0x3eaddf54	0.33959448
6	0xbf2913d0	-0.66045856
7	0x3f8eb9e5	1.115048
8	0xbe2ed66b	-0.17073981
9	0xbdcc11b1	-0.09964312
10	0x3e6f85c8	0.23390877
11	0x3e32aeaa	0.17449442
12	0xbe85089d	-0.25983134
13	0xbea38b11	-0.31942037
14	0x3e7157cd	0.2356865
15	0xbf7606f4	-0.9610436
16	0xbf349bc2	-0.7055017
17	0x3cdfe200	0.027329445
18	0xbedfbd83	-0.43699273
19	0x3e8a76b2	0.27043682
20	0xbeeef083	-0.4666787
21	0xbe7a55d9	-0.24446811
22	0xbe3fbacb	-0.187236
23	0xbf06165b	-0.5237786
24	0xbf0a66eb	-0.5406329
25	0x3eb1715f	0.34656808
26	0x3e4af093	0.19818334
27	0x3ec82b83	0.39095697
28	0x3fbd7acd	1.4803101
29	0x3de5f6e5	0.11228732
30	0x3f7eb0a5	0.9948829
31	0xbd278203	-0.040895473
32	0x3f881c1e	1.0633581
33	0xbd914271	-0.07092751
34	0xbe7ee74c	-0.2489292
35	0x3fc5c21c	1.5449862
36	0xbf2a057c	-0.6641462
37	0xbe2a9f7a	-0.16662398
38	0x3ee83626	0.45353812
39	0xbe23a8bc	-0.15982336
40	0xbf04c402	-0.51861584
41	0x3ee51927	0.44745752
42	0x3f7975ed	0.97445565
43	0x3e50a666	0.20375976
44	0xbf6c6d98	-0.92354727
45	0xbf1bc2f4	-0.6084435
46	0x3e05ba03	0.13059239
47	0xbe06f8f6	-0.13180909
48	0x3e8abf22	0.27098948
49	0x3f350cdd	0.7072275
50	0x3df2507f	0.1183176
51	0x3ef2ff48	0.4746039
52	0x3f855113	1.0415367
53	0xbf6f07fe	-0.9337157
54	0xbef021a7	-0.46900675
55	0xbf5b9e67	-0.8578858
56	0xbebb7e8c	-0.36619985
57	0xbe61c7c5	-0.22048862
58	0xbf0fea67	-0.56217045
59	0x3f00c190	0.5029535
60	0xbeb31236	-0.3497483
61	0xbfcd42e7	-1.6036042
62	0x3cbac409	0.022798555
63	0xbe995554	-0.29947913
64	0x3ee2b39f	0.44277665
65	0x3f30cebc	0.6906545
66	0xbf0d2920	-0.55140877
67	0x3f56800d	0.8378914
68	0xbe8a3fa5	-0.27001682
69	0x3ea64ab0	0.32478857
70	0xbf89553d	-1.0729138
71	0xbe7d7d2b	-0.24754779
72	0x3f1274bb	0.57209367
73	0xbe08e1f7	-0.13367449
74	0xbc865375	-0.016397217
75	0x3d21fca2	0.03954757
76	0x3f35e6e5	0.7105544
77	0x3ea742cb	0.32668146
78	0xbe67456c	-0.22585076
79	0xbd7ee989	-0.062234435
80	0x3eeba885	0.46027008
81	0xbe03fc13	-0.12889127
82	0x3e54cf27	0.20782147
83	0xbf1803e4	-0.59380937
84	0xbc0d3bf8	-0.008620255
85	0x3df73b37	0.12071841
86	0x3e66f8bf	0.22555827
87	0x3e53898e	0.20657942
88	0xbf7f3c82	-0.997017
89	0x3f39f456	0.7263845
90	0xbf7edea8	-0.99558496
91	0x3f5f4201	0.8721009
92	0xbe91a437	-0.28445598
93	0x3e216d36	0.15764317
94	0x3f90290b	1.1262525
95	0x3e02ea7c	0.12784761
96	0x3df9614e	0.121767625
97	0xbeb47275	-0.35243574
98	0xbec9cd18	-0.39414287
99	0xbe813c45	-0.25241295
100	0xbf59783f	-0.84949106
101	0xbf519cd6	-0.8187994
102	0x3ca68a4b	0.020329615
103	0xbef2eb26	-0.4744503
104	0x3ea03fea	0.31298763
105	0x3e6119f3	0.21982555
106	0x3e8e8127	0.2783291
107	0xbef28a26	-0.47371024
108	0xbeaec325	-0.34133258
109	0xbed89951	-0.4230447
110	0xbe15eaaa	-0.14640298
111	0xbee648f3	-0.4497753
112	0xbce8d48e	-0.028421666
113	0x3f424dbf	0.7589988
114	0x3d831b50	0.06401694
115	0x3d711804	0.058860794
116	0x3f2fe77a	0.6871258
117	0xbd07049b	-0.032963376
118	0x3f8ece1b	1.1156648
119	0x3f09c9d4	0.5382359
120	0xbee74e51	-0.45176938
121	0xbf045d3b	-0.5170476
122	0x3dc12034	0.094299704
123	0x3f910f94	1.1332879
124	0xbf003d14	-0.500932
125	0xbef24885	-0.47320953
126	0x3e503252	0.20331696
127	0x3ec7229f	0.388936
128	0x3ea69be5	0.32540813
129	0x3f3ce89f	0.7379245
130	0xbd995f7b	-0.074889146
131	0xbe7981a7	-0.24365865
132	0x3f0bd29c	0.5461824
133	0xbe036875	-0.12832816
134	0x3d56de28	0.05245796
135	0x3f2988a5	0.6622413
136	0xbf73c274	-0.95218587
137	0xbf69080d	-0.9102791
138	0xbe2749b8	-0.16336715
139	0x3f079e07	0.52975506
140	0x3d068302	0.032839783
141	0xbf9ec087	-1.2402505
142	0xbf285648	-0.65756655
143	0x3d651979	0.055932496
144	0x3f1ddbd5	0.6166356
145	0x3eb3cc5b	0.35116848
146	0xbe9a9842	-0.30194288
147	0x3f4b9e5f	0.7953853
148	0x3e0beb24	0.13663918
149	0x3e6bf899	0.23044051
150	0xbfb0d4e5	-1.381497
151	0x3f89eb74	1.077498
152	0x3e4b6d36	0.1986588
153	0xbe1c7268	-0.15278018
154	0xbea7c0f2	-0.32764393
155	0x3e25a7f7	0.16177355
156	0xbe67bfc4	-0.22631747
157	0x3ea6d0e0	0.32581234
158	0xbdd05ebc	-0.10174319
159	0xbd46ee82	-0.048567303
160	0xbf7f9c44	-0.9984782
161	0xbf86b3a9	-1.0523578
162	0xbf073493	-0.52814597
163	0xbed441b2	-0.41456372
164	0x3f354390	0.7080622
165	0x3f29d926	0.6634697
166	0x3e8199fa	0.25312787
167	0xbec2616a	-0.37964946
168	0x3f20c7be	0.6280478
169	0x3f0df555	0.5545247
170	0xbf396589	-0.72420555
171	0xbec4767c	-0.38371646
172	0xbe1c4252	-0.15259674
173	0x3e2e5523	0.17024665
174	0x3e30e823	0.17276053
175	0xbed03a6c	-0.40669572
176	0x3f6319cd	0.88711244
177	0x3ecaa271	0.39577058
178	0xbd927b1f	-0.0715239
179	0x3e2fb214	0.17157775
180	0x3f869eb8	1.0517187
181	0x3f98191f	1.1882666
182	0x3ebb41b4	0.36573565
183	0xbebfbce7	-0.3744881
184	0xbf4f9bae	-0.81096923
185	0xbf003c70	-0.5009222
186	0x3c3b61d1	0.0114368955
187	0x3e61938b	0.2202894
188	0x3e33984b	0.17538564
189	0xbadca813	-0.0016834758
190	0xbed24228	-0.41066098
191	0xbd0678d5	-0.03283008
192	0x3f6f5927	0.9349541
193	0xbe4f448e	-0.20240995
194	0xbf21adc5	-0.63155776
195	0x3eaa25ed	0.3323206
196	0x3d0a1a9e	0.03371679
197	0x3b89847a	0.0041967006
198	0x3f180ce2	0.5939466
199	0x3f2d08ec	0.6759174
200	0xbf5f24c1	-0.87165457
201	0xbeeadc99	-0.45871428
202	0x3de0dfe7	0.10980206
203	0xbf1352d7	-0.5754828
204	0x3fa20b69	1.2659732
205	0x3f30beb4	0.6904099
206	0x3f4846b1	0.78232867
207	0x3ebb0a44	0.3653127
208	0x3f9b5ecd	1.2138306
209	0x4014b242	2.32338
210	0xbe1855c5	-0.14876468
211	0x3f7b0c00	0.98065186
212	0x3ed2368f	0.4105725
213	0xbe02704c	-0.1273815
214	0x3f2e5168	0.68092966
215	0xbf13dd9a	-0.5776001
216	0x3e050d4e	0.12993357
217	0xbdb38488	-0.08765513
218	0x3e215de7	0.15758477
219	0xbeb723a1	-0.3576937
220	0x3f6b8fa5	0.9201606
221	0x3dab8014	0.08374038
222	0x3ec2082c	0.3789686
223	0xbd1894c2	-0.03725124
224	0xbf59dd5a	-0.8510338
225	0x3ee6ec9f	0.45102403
226	0xbe5d3f89	-0.21606268
227	0xbf298614	-0.6622021
228	0x3e6d48ac	0.23172253
229	0x3bcdd769	0.0062817824
230	0x3eb6fcd5	0.3573977
231	0x3fbbb05d	1.4663197
232	0xbe763306	-0.24042901
233	0xbed6ead7	-0.41976044
234	0x3e7410a6	0.23834476
235	0xbec2d98d	-0.38056603
236	0xbec39b8e	-0.38204616
237	0xbf3f8558	-0.7481284
238	0x3e673232	0.22577742
239	0xbcdc0959	-0.026859926
240	0x3efb32fe	0.4906234
241	0xbf91ddb8	-1.1395788
242	0x3e977ab5	0.29585806
243	0x3f90d535	1.1315066
244	0xbeff89c2	-0.49909788
245	0x3f315724	0.6927359
246	0xbd24be96	-0.04022082
247	0x3e47fad8	0.19529283
248	0xbea8d889	-0.32977703
249	0xbf6b2935	-0.9185975
250	0x3f85e65d	1.0460926
251	0x3f590acc	0.847821
252	0xbf2fb964	-0.6864226
253	0xbf7e531b	-0.9934556
254	0x3e474b47	0.1946231
255	0x3f038431	0.51373583

fc_net.0.bias f4 [32]
0	0x3def6b8d	0.116904356
1	0x3f675283	0.9036028
2	0xbede4542	-0.43412215
3	0xbd91ac49	-0.07112939
4	0xbf027e6a	-0.5097414
5	0xbe0622f3	-0.1309927
6	0x3f682283	0.9067766
7	0x3e8d185d	0.2755765
8	0xbedd55b1	-0.4322944
9	0xbe354e72	-0.17705706
10	0xbf7e5f82	-0.99364483
11	0x3f001431	0.5003081
12	0x3e87326e	0.26405662
13	0x3f3c7827	0.7362084
14	0x3f04f25e	0.5193232
15	0xbf0510a0	-0.5197849
16	0xbe9b80a0	-0.3037157
17	0xbf1289e6	-0.57241666
18	0x3e92ea62	0.28694445
19	0x3e676527	0.2259718
20	0xbf39470e	-0.72374046
21	0xbfb51dc8	-1.4149714
22	0xbddb8478	-0.10718626
23	0x3d34f3fc	0.044177994
24	0xbd412141	-0.047150854
25	0xbe124a2d	-0.14286108
26	0x3f2eda07	0.68301433
27	0xbf256314	-0.64604306
28	0xbee36d08	-0.44419122
29	0xbf599535	-0.84993297
30	0xbe2d6382	-0.1693249
31	0xbf605186	-0.87624395

fc_net.2.weight f4 [32, 32]
0	0x3d9aea88	0.075642645
1	0xbe9232da	-0.28554422
2	0xbf45a5a5	-0.7720588
3	0xbe3e5e34	-0.18590623
4	0xbf741cfa	-0.95356715
5	0xbe84ab94	-0.25912154
6	0xbda20df1	-0.07912815
7	0xbe4f1c17	-0.20225559
8	0x3f237504	0.63850427
9	0x3ed26881	0.41095355
10	0xbf93d47a	-1.1549218
11	0x3f34f9fa	0.70693934
12	0x3e77663e	0.24160096
13	0x3f211663	0.62924784
14	0xbe572f35	-0.21014102
15	0x3f0ffcd8	0.56245184
16	0xbf2bd88c	-0.671273
17	0xbf8589eb	-1.0432714
18	0x3e5dd71f	0.21664093
19	0x3e88c5cd	0.2671341
20	0xbd82e24a	-0.063908175
21	0xbef8bddc	-0.4858235
22	0x3de603b2	0.112311736
23	0xbfabe336	-1.3428714
24	0xbe220a07	-0.15824138
25	0x3caa33e5	0.020776698
26	0xbe9fa7d4	-0.3118273
27	0xbe8a6046	-0.27026576
28	0xbe508fdb	-0.20367377
29	0xbf34ac36	-0.70575273
30	0xbe919b22	-0.2843867
31	0xbe208fab	-0.15679805
32	0xbed5d307	-0.41762564
33	0x3f3c80a1	0.7363377
34	0x3e6d6293	0.23182134
35	0x3c975d72	0.018477175
36	0xbe331ff3	-0.17492656
37	0x3ef1280e	0.47100872
38	0x3ef0b883	0.4701577
39	0xbf9ed714	-1.2409387
40	0x3e715b3e	0.23569962
41	0xbf0ea92f	-0.55726904
42	0xbf0a0d2a	-0.53926337
43	0x3ed86e4b	0.42271647
44	0x3e53009d	0.20605703
45	0x3e88c626	0.26713675
46	0xbe21a314	-0.15784866
47	0x3db3b4f6	0.0877475
48	0xbeb041e4	-0.3442527
49	0xbea66835	-0.3250138
50	0xbe2df25c	-0.16986984
51	0xbe0c6ff2	-0.13714579
52	0xbdf10c53	-0.11769929
53	0xbeeca246	-0.46217555
54	0xbfa67eef	-1.3007487
55	0xbf24c51a	-0.64363253
56	0xbf99ac64	-1.2005734
57	0xbe7ca707	-0.24673091
58	0xbe775809	-0.24154676
59	0xbf8a1ed8	-1.0790663
60	0xbe752f45	-0.23943813
61	0xbf0debcb	-0.55437917
62	0x3d4d482a	0.05011765
63	0x3ed9bb90	0.4252591
64	0x3d7be65b	0.06149898
65	0x3ebae78c	0.3650478
66	0xbf523984	-0.8211901
67	0xbef0ebe2	-0.47054964
68	0x3f7dc9e0	0.9913616
69	0x3f538fbd	0.826412
70	0x3d211ea0	0.039335847
71	0x3f77935c	0.9670923
72	0x3e08c1bb	0.13355152
73	0xbec8bde0	-0.39207363
74	0xbf096afd	-0.53678876
75	0x3eeabc40	0.45846748
76	0x3e8aad95	0.27085558
77	0x3ebb9f37	0.3664491
78	0x3f2057c2	0.6263391
79	0xbf452aaa	-0.77018225
80	0x3f039310	0.51396275
81	0x3f932397	1.1495236
82	0xbd891498	-0.06693381
83	0x3eb276ef	0.34856364
84	0x3dbcf2fa	0.092260316
85	0x3e3981e9	0.18115963
86	0x3eb5f41e	0.3553781
87	0x3f5c3068	0.8601136
88	0xbf15bbe8	-0.5848985
89	0x3f1dcd34	0.6164124
90	0x3e491a3c	0.19638914
91	0x3e62b19b	0.22138064
92	0x3f844579	1.0333701
93	0x3e55be99	0.20873488
94	0xbf1ba3be	-0.60796726
95	0xbe0bdbda	-0.13658085
96	0xbe370881	-0.17874338
97	0x3f117c30	0.5683012
98	0x3ec6d4a9	0.38834122
99	0x3e0130da	0.12616292
100	0x3ef89791	0.48553136
101	0xbe861dfc	-0.2619475
102	0xbee91981	-0.4552727
103	0xbdec22be	-0.11530064
104	0x3f31a33a	0.6938969
105	0x3d533ec1	0.05157352
106	0x3efbf66c	0.49211442
107	0x3d072341	0.032992605
108	0x3ea304b6	0.31839532
109	0xbeab4363	-0.3344985
110	0xbff24c7b	-1.892959
111	0x3f6baf4f	0.92064375
112	0x3e3ecfae	0.18633911
113	0x3eb04e69	0.34434822
114	0xbf1a3b29	-0.6024652
115	0xbe6d89e8	-0.23197138
116	0x3d95b5b0	0.07310045
117	0x401a0108	2.406313
118	0xbe8087b5	-0.25103536
119	0xbd22ab9d	-0.039714444
120	0xc00a7994	-2.1636705
121	0xbebf4a9c	-0.3736161
122	0xbfc014f3	-1.5006393
123	0x3ebd3d82	0.3696099
124	0xbeff9a3c	-0.4992236
125	0x3e803878	0.25043082
126	0xbef6fd16	-0.48239964
127	0x3f1c1df7	0.6098322
128	0x3f456871	0.7711249
129	0x3f7a6349	0.9780775
130	0x3ea5cc59	0.32382467
131	0x3f3cbd72	0.7372657
132	0x3f51c998	0.8194823
133	0x3ea36437	0.31912395
134	0x3d80265b	0.06257316
135	0xbeee054f	-0.46488425
136	0xbf0140bf	-0.5048942
137	0xbf35fdcb	-0.7109038
138	0xbf923927	-1.1423692
139	0x3e91f53a	0.28507406
140	0x3e3986d6	0.18117842
141	0x3eddf09e	0.4334764
142	0x3f6050ec	0.87623477
143	0xbf80781f	-1.0036658
144	0xbf20e2ee	-0.6284627
145	0xbea8725c	-0.3289975
146	0x3f0aa2bb	0.54154557
147	0x3f66395b	0.8993127
148	0xbf3bfa81	-0.73429114
149	0x39a70ff8	0.0003186462
150	0x3f7f3984	0.99697137
151	0x3fa589a1	1.2932626
152	0x3f2b8c3d	0.6701086
153	0x3ee6fdfd	0.45115653
154	0x3e6877b0	0.22701907
155	0xbf0fcfcb	-0.5617644
156	0x3f8d5f18	1.1044645
157	0x3fb7883d	1.4338452
158	0xbef4b551	-0.47794583
159	0xbe795a2c	-0.24350804
160	0x3f42e94f	0.7613725
161	0xbf13cbbe	-0.5773276
162	0xbe7826c6	-0.24233541
163	0x3e0aa375	0.13538916
164	0xbf9ccf20	-1.225071
165	0xbfaca2be	-1.3487165
166	0x3ed6fd3c	0.41990077
167	0x3f68e9c5	0.90981704
168	0xbfd4d60a	-1.662782
169	0x3e0be8e3	0.13663058
170	0xbea0debf	-0.31419942
171	0x3f3897ab	0.72106427
172	0xbb5ae0c0	-0.0033398122
173	0x3e8d2575	0.2756764
174	0x3fd93e3b	1.6972116
175	0xbf8e5bb2	-1.1121733
176	0x3f264542	0.6494943
177	0x3fa43d4b	1.2831205
178	0xbf988ae1	-1.1917382
179	0xbf922a58	-1.1419172
180	0x3ea88ffe	0.32922357
181	0x3d936470	0.07196891
182	0xbeff0186	-0.4980585
183	0xbf9be8b5	-1.2180392
184	0x3f29486d	0.6612614
185	0xbf8ff6d5	-1.1247202
186	0x3ef814cd	0.4845337
187	0xbee5df2d	-0.44896832
188	0xbe6aa0d3	-0.22912912
189	0x3ec06083	0.37573633
190	0x3ecd1ba9	0.40060166
191	0x3e3dd5aa	0.18538538
192	0x3e5123b6	0.20423779
193	0x3edfaf2f	0.43688342
194	0x3edb2c3d	0.4280719
195	0xbf4e0daa	-0.804896
196	0xbe7e9715	-0.2486232
197	0xbd8e13d6	-0.06937377
198	0xbfbde195	-1.4834467
199	0xbf5bfeeb	-0.8593585
200	0x3fd8b1e5	1.6929289
201	0x3e9ee705	0.3103563
202	0x3bec83d6	0.0072178645
203	0x3d157c80	0.036495686
204	0xbed55405	-0.41665664
205	0xbf0e0a55	-0.55484515
206	0xc05dcf19	-3.4657652
207	0x3b96586b	0.004588177
208	0xbdd0e659	-0.10200185
209	0xbfcb0c73	-1.5863174
210	0xbe54d58c	-0.20784587
211	0xbf552140	-0.8325386
212	0x3cb43f84	0.022002943
213	0x3f9ca557	1.2237958
214	0x3f2d653d	0.677326
215	0xbd9d2509	-0.076730795
216	0x3e677910	0.22604775
217	0x3989f8b2	0.0002631597
218	0xbf71f10f	-0.9450845
219	0xbf2b2564	-0.6685393
220	0xbe7b1278	-0.24518764
221	0x3e435d03	0.1907845
222	0x3facc23e	1.3496778
223	0xbe1506f6	-0.14553437
224	0xbf0a593f	-0.5404243
225	0x3dc09027	0.09402495
226	0xbf83b323	-1.0289043
227	0x3f2d61a3	0.67727107
228	0x3fd3f9aa	1.6560566
229	0x3f0cf663	0.55063456
230	0xbf4b68e9	-0.79456955
231	0x3f2226ae	0.6334027
232	0xbf1fd210	-0.62429905
233	0x3ecf7d56	0.4052531
234	0xbe901b50	-0.28145838
235	0x3f10ecb5	0.56611186
236	0x3f19b600	0.60043335
237	0xbe7eff3a	-0.24902049
238	0xbfd06cce	-1.6283205
239	0x3f9e996b	1.239057
240	0x3f60e7e4	0.87853837
241	0x3fdf26f0	1.7433758
242	0x3e45b1b2	0.19306067
243	0x3f057b05	0.5214084
244	0xbec6e1eb	-0.38844237
245	0x3f4bdb98	0.7963195
246	0x3f62f594	0.8865597
247	0x3f30d379	0.6907268
248	0xbf751d82	-0.9574815
249	0x3f62d7da	0.88610613
250	0x3e003522	0.12520269
251	0x3ff710d9	1.9302016
252	0x3f113852	0.5672656
253	0xbf867497	-1.050433
254	0xbf70a76c	-0.94005466
255	0x3f14c06c	0.5810611

fc_net.2.bias f4 [32]
0	0x3f6d9b66	0.92815244
1	0x3ec8049b	0.39066014
2	0x3ee176ac	0.44035852
3	0xbfbfaa78	-1.4973898
4	0x3e9a99aa	0.3019536
5	0x3ee185b2	0.44047314
6	0xbfe2031e	-1.7657201
7	0xbe4ab4dc	-0.19795555
8	0x3e902351	0.28151944
9	0xbe913811	-0.28363088
10	0xbe74dd98	-0.23912656
11	0x3e5dd97d	0.21664996
12	0x3e8ef58d	0.27921715
13	0xbf1cd026	-0.6125511
14	0x3d2cfbe6	0.042232417
15	0x3f2163a3	0.6304266
16	0xbf09f808	-0.5389409
17	0x3f195555	0.5989583
18	0xbf0b8dbd	-0.5451315
19	0xbdb21f93	-0.086974286
20	0x3deec02b	0.11657747
21	0xbd11264e	-0.03543692
22	0x3e87e01a	0.26538163
23	0x3e5fbf43	0.21850304
24	0xbf985a53	-1.1902565
25	0x3ed99815	0.42498842
26	0x3eb23fb8	0.3481424
27	0x3ef2e1c0	0.4743786
28	0x3d2ca54e	0.042149834
29	0x3ed4e35f	0.4157972
30	0x3ed8220b	0.42213473
31	0x3e3d8909	0.18509306

action_head.weight f4 [5, 32]
0	0xbf4bf65f	-0.7967281
1	0xbfd32309	-1.6495067
2	0x3f90721b	1.1284822
3	0xbf8c8dd5	-1.0980784
4	0x3fa76aac	1.3079429
5	0x3f9ad8e4	1.209744
6	0xc004572b	-2.0678203
7	0x3f7fcf4d	0.9992569
8	0xbfaffd08	-1.3749094
9	0xbfcfd7bc	-1.6237712
10	0xbfad64e1	-1.3546411
11	0xbfc6f899	-1.5544616
12	0xbfd2a347	-1.6456078
13	0xbf8cb97e	-1.0994108
14	0xbf8e7a05	-1.1130987
15	0x3f84ef75	1.0385576
16	0xbfbf1eb0	-1.493124
17	0x3f993040	1.196785
18	0xbfb638bc	-1.4236064
19	0xbf35b4d5	-0.7097905
20	0xbfc5d05a	-1.5454209
21	0x3faf9e3b	1.3720163
22	0x3f7b1484	0.9807818
23	0xbf9cb0b0	-1.2241421
24	0xbfd3964f	-1.6530246
25	0x3f941f9a	1.1572144
26	0x3f7800b0	0.9687605
27	0x3f667709	0.90025383
28	0xbf975547	-1.18229
29	0xbf9acf39	-1.2094489
30	0x3f731025	0.9494651
31	0xbf85dc48	-1.045785
32	0xbf4bfcc6	-0.79682577
33	0xbfd7bf43	-1.6855243
34	0x3fa99239	1.3247749
35	0xbf2c9c44	-0.6742594
36	0x3fb1dce4	1.3895535
37	0x3f9d742b	1.2301077
38	0xbff52e87	-1.9154824
39	0x3f4bf955	0.79677325
40	0xbfa718bf	-1.3054427
41	0xbfcc9c65	-1.5985228
42	0xbfbecb11	-1.4905721
43	0xbfc9f922	-1.5779154
44	0xbfe20466	-1.7657592
45	0xbf907262	-1.1284907
46	0xbf8e327e	-1.1109159
47	0x3f69dea9	0.9135538
48	0xbfbbc30d	-1.46689
49	0x3f886e68	1.0658693
50	0xbfb2fd21	-1.3983499
51	0xbf384560	-0.7198086
52	0xbfcc43cf	-1.5958194
53	0x3fa15196	1.2603023
54	0x3f389fc5	0.7211879
55	0xbf9dfd1c	-1.2342868
56	0xbfefae51	-1.8725072
57	0x3f88ad9e	1.0677984
58	0x3f8cb6b3	1.0993255
59	0x3f83dee6	1.0302398
60	0xbf933e06	-1.1503303
61	0xbf8b0f91	-1.0864125
62	0x3f87a2e3	1.0596584
63	0xbf89e26f	-1.0772227
64	0xbf6cfb12	-0.925706
65	0xbfc98236	-1.5742862
66	0x3f921b2a	1.141454
67	0xbfa0cf92	-1.2563345
68	0x3fa13787	1.2595071
69	0x3fa12423	1.2589153
70	0xc005f324	-2.0929651
71	0x3f82444d	1.0177094
72	0xbfb4023a	-1.406318
73	0xbfd13bbb	-1.6346353
74	0xbfaf66b6	-1.370322
75	0xbfd9c5d1	-1.7013494
76	0xbfc2dac0	-1.5223007
77	0xbf8de27b	-1.1084741
78	0xbf490b37	-0.7853274
79	0x3f958117	1.168002
80	0xbfc861c4	-1.5654836
81	0x3f91a77e	1.137924
82	0xbf9f3f0a	-1.2441113
83	0xbf013d5d	-0.5048426
84	0xbfbf5f24	-1.495091
85	0x3fa2a4a3	1.2706493
86	0x3f838228	1.0274096
87	0xbfa1abac	-1.2630515
88	0xbfc173f3	-1.511351
89	0x3f97417b	1.1816858
90	0x3f44d3e0	0.76885796
91	0x3f398045	0.7246135
92	0xbf9345c5	-1.1505667
93	0xbfb534e3	-1.4156765
94	0x3f9393b2	1.1529448
95	0xbf98bf6f	-1.1933421
96	0xbf315dc2	-0.6928369
97	0xbfcb76cd	-1.589563
98	0x3f862d84	1.048264
99	0xbf9c36fd	-1.2204281
100	0x3fa830b4	1.3139863
101	0x3f96d22c	1.1782889
102	0xbfebba65	-1.8416258
103	0x3f73a9ee	0.9518117
104	0xbfb2489f	-1.3928412
105	0xbfd1916d	-1.6372505
106	0xbfa40a2a	-1.2815602
107	0xbfcafb0b	-1.5857862
108	0xbfc59a8f	-1.5437793
109	0xbf87b411	-1.0601827
110	0xbf7b3a86	-0.98136175
111	0x3f674611	0.9034129
112	0xbfc1c7be	-1.5139081
113	0x3f90f824	1.1325727
114	0xbfa94c74	-1.3226457
115	0xbf379b84	-0.71721673
116	0xbfc695a2	-1.5514414
117	0x3faeace7	1.3646516
118	0x3f94d1fd	1.1626583
119	0xbfa8d754	-1.3190713
120	0xbfe66a95	-1.8001276
121	0x3f938eb4	1.1527925
122	0x3fa2382c	1.2673392
123	0x3f5c6265	0.8608764
124	0xbf91ad86	-1.138108
125	0xbfae15e9	-1.3600436
126	0x3f43825f	0.76370806
127	0xbfa453e6	-1.2838104
128	0xbf63ccac	-0.8898418
129	0xbfe61ff1	-1.7978498
130	0x3f96ce36	1.178168
131	0xbf7a61a6	-0.9780525
132	0x3fac2042	1.3447344
133	0x3f977169	1.1831485
134	0xbff637ee	-1.9235818
135	0x3f792b71	0.9733191
136	0xbfa5a271	-1.2940198
137	0xbfcafca5	-1.5858351
138	0xbfa4956a	-1.2858098
139	0xbfc1011a	-1.5078461
140	0xbfcc7d2b	-1.5975698
141	0xbf8fed36	-1.1244266
142	0xbf8d30d5	-1.1030527
143	0x3f7c3f1c	0.985338
144	0xbfc49d59	-1.5360519
145	0x3f97994b	1.1843656
146	0xbfb38e2b	-1.4027761
147	0xbf2bdad3	-0.67130774
148	0xbfb814e2	-1.4381373
149	0x3faf82f6	1.3711841
150	0x3f572679	0.8404308
151	0xbfa023ba	-1.2510903
152	0xbfd8cd4f	-1.6937655
153	0x3f9b97f1	1.2155744
154	0x3f6297db	0.88512963
155	0x3f721a06	0.9457096
156	0xbf995966	-1.1980407
157	0xbf9f6785	-1.2453467
158	0x3f8a385c	1.079845
159	0xbf689648	-0.9085431

action_head.bias f4 [5]
0	0x3e2b4696	0.16726145
1	0x3eec727c	0.46181095
2	0x3ec435f0	0.383224
3	0x3ed4638d	0.414822
4	0x3e78da00	0.2430191
