experiments/exp-20200629-08-29-33/weights/weights-0.pth (torch_old, 6682 bytes, 6 tensors)

fc_net.0.weight f4 [32, 4]
0	0xbd90ee42	-0.07076694
1	0xbdb9057e	-0.09034251
2	0x3eecf182	0.46278006
3	0x3ef78800	0.48345947
4	0xbc02ca37	-0.007982782
5	0xbcc00e0f	-0.023444204
6	0xbf189bc6	-0.5961269
7	0x3eb9dbb1	0.36300424
8	0xbe8d8413	-0.27639827
9	0xbe0d57f8	-0.13803089
10	0x3f476957	0.7789511
11	0x3e80f4c2	0.25186735
12	0xbc6dee35	-0.014522125
13	0x3d966141	0.073427685
14	0x3ec3b2e9	0.38222435
15	0xbe364059	-0.17797984
16	0xbec0eeac	-0.37682092
17	0xbe067cce	-0.13133547
18	0x3ed1dc32	0.40988308
19	0x3f449cb9	0.7680164
20	0x3e80d58e	0.2516293
21	0xbeb6ea02	-0.3572541
22	0xbf8d8ab3	-1.1057953
23	0x3f084d34	0.532428
24	0x3e8049b1	0.25056222
25	0xbdb33a77	-0.08751386
26	0xbf8a7af5	-1.0818774
27	0xbd6ce233	-0.057832908
28	0xbd119beb	-0.035549086
29	0x3e312f02	0.17303088
30	0x3f3e1e24	0.7426474
31	0xbf1c16c3	-0.6097223
32	0x3daeded4	0.08538595
33	0xbdda1e23	-0.106502794
34	0xbf153928	-0.5829034
35	0x3c4cae03	0.0124926595
36	0xbe069940	-0.13144398
37	0x3e51a687	0.20473681
38	0x3dd62eaa	0.10458119
39	0xbf7d5d7a	-0.9897076
40	0xbdaaf678	-0.083477914
41	0x3d49f1d3	0.049302887
42	0x3f0d128d	0.5510643
43	0x3e2e0cc4	0.16997057
44	0xbe234b2b	-0.15946643
45	0x3d173110	0.036912024
46	0x3f4b0486	0.7930378
47	0xbe6c694c	-0.23087043
48	0xbde5b953	-0.112169884
49	0xbe1c66a5	-0.15273531
50	0xbd087bb1	-0.033321086
51	0x3f16f66c	0.5896976
52	0xbd261acb	-0.040552896
53	0x3ce67f75	0.028136948
54	0x3ede0688	0.43364358
55	0x3d7de5e7	0.06198683
56	0x3ddacf46	0.106840655
57	0x3deeb22a	0.11655076
58	0xbf7ab926	-0.97938764
59	0xbf098a55	-0.537267
60	0xbe4a6567	-0.19765244
61	0x3ebd3f11	0.36962178
62	0x3f2e9f3c	0.6821172
63	0xbf4d4023	-0.8017599
64	0xbdacbfbc	-0.08435008
65	0xbe722384	-0.2364636
66	0x3e2321af	0.15930818
67	0x3ed017d2	0.40643173
68	0x3dda1fd4	0.10650602
69	0xbe755983	-0.23959927
70	0x3e88dc78	0.26730704
71	0x3fb5f4d4	1.4215341
72	0x3e53b863	0.20675807
73	0x3c85b914	0.016323604
74	0xbef1c86a	-0.47223216
75	0xbe7416d9	-0.2383684
76	0x3e752b76	0.2394236
77	0xbe8ad5a1	-0.2711611
78	0xbf83b2ab	-1.02889
79	0x3f514e39	0.81759983
80	0x3db13b6b	0.08653911
81	0x3e11dce1	0.14244415
82	0xbe8bd951	-0.27314237
83	0xbf819037	-1.0122136
84	0xbded3b99	-0.11583633
85	0xbe3c16d6	-0.18368086
86	0xbd58274a	-0.052771844
87	0x3f26977a	0.65074885
88	0xbd1957ed	-0.03743737
89	0x3c42721e	0.011868028
90	0x3ecf80e4	0.40528023
91	0x3d71745c	0.05894886
92	0xbd108e39	-0.035291884
93	0x3e106a97	0.14103161
94	0x3f2733a3	0.65313166
95	0x3da8250f	0.08210193
96	0x3e2058a4	0.15658814
97	0x3e5d1119	0.21588553
98	0xbf83a164	-1.0283628
99	0xbeecd5fe	-0.46257013
100	0x3e1c7725	0.15279825
101	0xbdc35369	-0.095373936
102	0xbf915184	-1.1353002
103	0xbf2442ef	-0.6416463
104	0xbdc71141	-0.09720088
105	0xbd8335d3	-0.064067505
106	0x3e754939	0.23953713
107	0x3eaf5eb2	0.34251934
108	0xbeadacc1	-0.33920863
109	0xbe83cbe0	-0.25741482
110	0x3f3fc311	0.7490702
111	0x3ec1af25	0.37828937
112	0x3e541564	0.20711285
113	0x3df0630d	0.117376424
114	0xbf8d8a1f	-1.1057776
115	0xbee51a4b	-0.44746622
116	0x3da8479d	0.08216784
117	0xbe3fcc32	-0.18730238
118	0x3ecb3af7	0.39693424
119	0x3f119dd7	0.5688147
120	0xbb9140c9	-0.004432772
121	0x3e27208e	0.16321012
122	0x3f06c66f	0.52646536
123	0x3e6e3f60	0.23266363
124	0x3d1f8161	0.038941745
125	0xbdbcbcf4	-0.092157274
126	0x3f330c4e	0.6994065
127	0x3e3b3c5f	0.18284748

fc_net.0.bias f4 [32]
0	0xbe561f16	-0.20910296
1	0xbf1321e4	-0.5747359
2	0x3ee27528	0.44230008
3	0xbfc19256	-1.5122783
4	0x3fb24252	1.3926489
5	0x3f931d11	1.1493245
6	0x3f14ec8a	0.5817343
7	0x3fa3b027	1.2788132
8	0xc0175da4	-2.3650904
9	0xbf228f93	-0.63500327
10	0x3dcc5814	0.09977737
11	0x3fcd3eb2	1.6034758
12	0xbfb51b45	-1.4148947
13	0xbf0a2ca3	-0.5397436
14	0xbf8d88ef	-1.1057414
15	0x3f887022	1.065922
16	0x3fb60616	1.4220607
17	0x3fad0051	1.3515722
18	0xc0046c57	-2.0691125
19	0x4019fc37	2.406019
20	0xbd84ed8b	-0.0649062
21	0xbfc86d1c	-1.5658298
22	0xbfcfd4e9	-1.623685
23	0x3fb2b067	1.3960084
24	0x3f8dc6dc	1.1076312
25	0x3f8be5b7	1.0929478
26	0xbfaad533	-1.3346313
27	0x3eec1287	0.46107885
28	0x3bf60ad7	0.0075086164
29	0x3f80d26f	1.0064219
30	0x3e2590e6	0.16168556
31	0x3ea5008d	0.32226983

fc_net.2.weight f4 [32, 32]
0	0x3ed60344	0.41799366
1	0x3eaef97c	0.34174716
2	0x3f344ca5	0.7042945
3	0x3ea60829	0.324281
4	0x3edfd17b	0.43714508
5	0x3f14c75e	0.5811671
6	0x3f3c6113	0.73585624
7	0x3f146a6e	0.579749
8	0x3f809a21	1.0047036
9	0x3f832291	1.0244924
10	0x3f1a0834	0.60168767
11	0x3f3e5b56	0.7435812
12	0xbdb9dc01	-0.090751655
13	0x3f32af58	0.69798803
14	0x3f44f511	0.7693644
15	0x3f26d220	0.65164375
16	0xbef28192	-0.4736448
17	0x3e9b2b50	0.30306482
18	0x3f5844e9	0.8448015
19	0x3e6420fa	0.22278205
20	0x3f78afd5	0.971433
21	0x3eda0f14	0.4258963
22	0x3ebfbaa9	0.37447098
23	0x3f20593f	0.6263618
24	0x3efc1be2	0.49240023
25	0x3f30a5f3	0.6900322
26	0x3e906d20	0.28208256
27	0x3f353685	0.70786315
28	0x3f3fad35	0.7487367
29	0x3f16bc47	0.5888104
30	0x3e8e010c	0.27735174
31	0x3f2f06b6	0.68369615
32	0xbe41a8a0	-0.18911982
33	0xbed06ffa	-0.4071043
34	0xbebd8d15	-0.370217
35	0xbf51cc1a	-0.8195206
36	0xbe1a1fad	-0.15051146
37	0xbe821fc0	-0.25414848
38	0xbc2baee0	-0.010478705
39	0xbebc2553	-0.36747226
40	0xbfe19470	-1.7623425
41	0xbf27fe4c	-0.656224
42	0xbe027d49	-0.12743105
43	0xbe1e7dc4	-0.15477663
44	0xbf5a1d8d	-0.8520134
45	0xbe56853c	-0.20949262
46	0xbbccc0b4	-0.006248558
47	0xbe159006	-0.14605722
48	0x3f2c4b6f	0.673026
49	0xbdb7f009	-0.0898133
50	0xbfb25343	-1.393166
51	0x3e909f4a	0.28246528
52	0xbe664a5b	-0.22489302
53	0xbf7fc611	-0.999116
54	0xbf40a88e	-0.75257194
55	0xbd9af1ed	-0.07565675
56	0xbe4b1630	-0.19832683
57	0x3e081e7a	0.13292876
58	0xbf2e10c9	-0.6799436
59	0xbe5dceb4	-0.21660882
60	0x3e09c3e8	0.13453639
61	0xbe0f2e74	-0.13982564
62	0xbe6cfa20	-0.2314229
63	0xbe3acb4d	-0.18241616
64	0xbea52e44	-0.3226186
65	0xbea709cb	-0.3262466
66	0xbe5e54de	-0.21712062
67	0xbf5a2a83	-0.8522112
68	0x3dc39d24	0.095514566
69	0x3d2784f0	0.040898263
70	0xbda0377a	-0.07823081
71	0xbd944ffb	-0.072418176
72	0xbfcad6fd	-1.5846859
73	0xbf24ee25	-0.6442588
74	0xbe20217c	-0.15637773
75	0xbe68dad5	-0.22739728
76	0xbf8deaa1	-1.1087228
77	0xbeafc086	-0.3432657
78	0xbdc2ce03	-0.0951195
79	0xbeb1bf97	-0.34716484
80	0x3f59a181	0.8501206
81	0xbe89d9ad	-0.26923886
82	0xbfc2bd9d	-1.5214115
83	0x3e1530c4	0.14569384
84	0xbe0cec11	-0.13761927
85	0xbf86f1dc	-1.054256
86	0xbf78007d	-0.96875745
87	0xbddcaba0	-0.10774922
88	0xbda68da0	-0.081324816
89	0xbdc7da74	-0.097584635
90	0xbf2d23e8	-0.67632914
91	0x3cafd896	0.02146558
92	0xbdc98a5d	-0.09840844
93	0xbe317922	-0.17331365
94	0xbee55794	-0.4479338
95	0xbe2d57dd	-0.16928048
96	0x3ebbd427	0.36685297
97	0xbfb88a0f	-1.4417132
98	0xbd138fac	-0.036025688
99	0x3f3444c3	0.7041742
100	0xbe950886	-0.29108065
101	0xc04b604c	-3.1777525
102	0xbfa6cfc1	-1.3032151
103	0x3e2aaea2	0.1666818
104	0x3e90be3d	0.2827014
105	0xbf02c314	-0.51078916
106	0x3e8d79de	0.2763204
107	0xbe0f8ab2	-0.14017752
108	0xbee517ce	-0.44744724
109	0x3f3d0a32	0.7384368
110	0xbeb6fdf6	-0.35740632
111	0x3ec9198e	0.3927731
112	0xbec71f63	-0.38891134
113	0xbe9ac2d7	-0.30226776
114	0x3e8c95c7	0.2745802
115	0xc090fda2	-4.530961
116	0xbea6aac7	-0.32552168
117	0xbedecff5	-0.43518034
118	0x3f2c69ec	0.67349124
119	0xbd0b0c96	-0.03394755
120	0xbfc67b83	-1.5506443
121	0xbfccdf74	-1.6005692
122	0x3d610134	0.054932788
123	0x3d558a26	0.0521337
124	0xbf139bdd	-0.57659703
125	0xbe7f219e	-0.24915168
126	0x3d4215fa	0.04738424
127	0x3ca23bdf	0.01980394
128	0xbf839fd0	-1.0283146
129	0xbf546299	-0.8296295
130	0xbf792a9c	-0.9733064
131	0xbef19c0a	-0.4718936
132	0xbfe66e0c	-1.8002334
133	0xbeceb18f	-0.4036984
134	0xbefb716e	-0.49109977
135	0xbf8270da	-1.019069
136	0xc048d6a1	-3.1381
137	0xbecccd4a	-0.40000373
138	0xbf1732d5	-0.5906194
139	0xbfbac3fc	-1.459106
140	0xbf4a32d4	-0.7898381
141	0xbf5ce5a4	-0.86287904
142	0xbf57187a	-0.84021723
143	0xbf450675	-0.7696298
144	0x3f2267cd	0.6343964
145	0xbfe9cb18	-1.8265104
146	0xc04cd22b	-3.2003276
147	0xbe188835	-0.14895709
148	0xbf33dc47	-0.7025799
149	0xbefeafe4	-0.4974357
150	0xbec916dc	-0.39275253
151	0xbf8b1680	-1.0866241
152	0xbe13489c	-0.14383167
153	0xbefa062b	-0.4883283
154	0xbedf8ef4	-0.43663752
155	0xbf96b5de	-1.1774251
156	0xbed03bb6	-0.40670556
157	0xbf697bb2	-0.9120437
158	0xbf6c54cb	-0.92316884
159	0xbfa6bd1e	-1.3026464
160	0xbf4ff766	-0.81236875
161	0xbf03c9f2	-0.5148002
162	0xbed7531e	-0.420556
163	0xbf541d17	-0.8285689
164	0xbf70bced	-0.9403828
165	0xbde6758d	-0.1125289
166	0xbe9d1aac	-0.30684412
167	0xbedbf114	-0.42957366
168	0xbff4f478	-1.9137106
169	0x3f5ccfea	0.8625475
170	0xbeb4a691	-0.3528333
171	0xbe9dc49e	-0.3081407
172	0xbf88f970	-1.0701122
173	0xbe4a551d	-0.1975903
174	0xbed220b8	-0.41040587
175	0xbe9502b9	-0.2910364
176	0x3f1cd03f	0.6125526
177	0xbfd3e8be	-1.6555402
178	0xbfe3b69b	-1.7790102
179	0x3d0b3725	0.033988137
180	0xbefcd4d7	-0.49381134
181	0xbf8f9146	-1.1216209
182	0xbf259699	-0.6468292
183	0xbf258866	-0.6466125
184	0xbdc73bbe	-0.09728192
185	0xbdc9930c	-0.098425
186	0xbf2028e3	-0.6256239
187	0xbf703fc8	-0.9384732
188	0xbeba2502	-0.3635636
189	0xbfa5ac87	-1.2943276
190	0xbf8af976	-1.085738
191	0xbf9fb9eb	-1.2478613
192	0xbe5bcc3c	-0.21464628
193	0xbe8a3458	-0.2699306
194	0xbde17173	-0.11007967
195	0xbf202c1a	-0.62567294
196	0xbdd1b9ca	-0.102405146
197	0xbd52df8c	-0.051482722
198	0xbd239c5d	-0.03994404
199	0xbd5d8f51	-0.054091755
200	0xbfd33f41	-1.6503679
201	0xbf466b9d	-0.77507955
202	0xbe7705ea	-0.2412335
203	0xbe409238	-0.18805778
204	0xbf5665ac	-0.8374889
205	0xbe2c1b86	-0.16807374
206	0xbed5aecf	-0.4173493
207	0xbda803a7	-0.08203822
208	0x3f2e5a54	0.6810658
209	0xbdf46828	-0.11933929
210	0xbfb032ce	-1.3765504
211	0x3e8f16b9	0.27947024
212	0xbec7a94b	-0.38996348
213	0xbf623fc1	-0.8837853
214	0xbf6ddb66	-0.929129
215	0xbe63e4aa	-0.22255197
216	0xbdaca799	-0.08430404
217	0x3ddbf9c1	0.10740996
218	0xbf74425a	-0.95413744
219	0xbe22b0ab	-0.15887706
220	0xbe089b3c	-0.13340467
221	0xbe210836	-0.15725788
222	0xbe9b2e06	-0.3030855
223	0xbd3ceb30	-0.04612273
224	0x3e96928e	0.29408687
225	0x3f427829	0.759646
226	0x3f258c6a	0.6466738
227	0x3eb7eb5a	0.35921746
228	0x3edcce93	0.43126354
229	0x3f717208	0.9431462
230	0x3f946a13	1.1594871
231	0x3f0aed08	0.5426793
232	0x3f6d5e64	0.92722154
233	0x3f002a7d	0.5006483
234	0x3f00ce73	0.50315017
235	0x3f0c55db	0.54818505
236	0x3d857171	0.06515778
237	0x3f0fae2f	0.5612516
238	0x3f9fac46	1.2474449
239	0x3f51afc9	0.8190885
240	0xbf126b95	-0.5719541
241	0x3e9163ef	0.28396556
242	0x3f83238d	1.0245224
243	0x3ebb0457	0.3652675
244	0x3f851f06	1.0400093
245	0xbe1fbc63	-0.15599208
246	0xbe14225d	-0.14466234
247	0x3ee305e6	0.44340438
248	0x3f836cd4	1.0267587
249	0x3f7df723	0.99205226
250	0xbdc01359	-0.0937869
251	0x3efcdcd6	0.49387234
252	0x3f971861	1.1804315
253	0x3e8c5fdb	0.27416882
254	0x3e77000c	0.24121112
255	0x3f33f399	0.70293576

fc_net.2.bias f4 [32]
0	0xbe42fc3c	-0.19041532
1	0x3f3a45f4	0.7276299
2	0x3f582488	0.8443074
3	0xbf1881a4	-0.59572816
4	0x3eccf888	0.40033364
5	0x3f3f239d	0.74663717
6	0x3f58e667	0.84726566
7	0xbe0102c2	-0.12598708
8	0xbcbfa296	-0.023392957
9	0xbde4c3fd	-0.11170194
10	0x3f18b71d	0.5965441
11	0x3d6d078a	0.057868518
12	0x3ebb3fd0	0.36572123
13	0x3f3f460a	0.74716246
14	0xbdc232de	-0.094823584
15	0x3cac7134	0.021050073
16	0x3f58b2e8	0.8464799
17	0xbe3c1783	-0.18368344
18	0xbba87f48	-0.005142126
19	0xbf5b89f8	-0.857574
20	0x3e5fd061	0.21856834
21	0xbe9bf743	-0.30462083
22	0x3f505fbe	0.8139609
23	0x3f4c5158	0.7981162
24	0xbd67e862	-0.056618102
25	0x3f3bacbf	0.73310465
26	0xbfac78c1	-1.3474351
27	0xbdd2c989	-0.10292346
28	0xbe5a5e67	-0.21325074
29	0x3d96eb77	0.0736913
30	0xbea81fc3	-0.32836732
31	0xbced20df	-0.028946338

action_head.weight f4 [5, 32]
0	0xbf66862f	-0.900485
1	0x3f86435f	1.048931
2	0x3f9a511d	1.2056004
3	0x3facd633	1.3502868
4	0x403cf466	2.952417
5	0x3ffd4c17	1.9788846
6	0x3f9c5ab2	1.2215178
7	0xbf5a912f	-0.8537778
8	0xbf5994fb	-0.8499295
9	0xbf5d6b6f	-0.86492056
10	0x3f8f3eb2	1.1191008
11	0xbed10711	-0.40825704
12	0x3f9d62a1	1.2295724
13	0x3f852065	1.0400511
14	0xbf188659	-0.5958
15	0xbf375f1b	-0.71629494
16	0x3f653475	0.8953317
17	0x40800759	4.000897
18	0xbf58b61c	-0.84652877
19	0x3fabca5f	1.3421134
20	0xbf5148c4	-0.81751657
21	0xbf7c80d1	-0.9863406
22	0x3f902a78	1.126296
23	0x3f81797c	1.0115199
24	0xbf25eda5	-0.6481574
25	0x3f90122f	1.1255549
26	0xc0397b93	-2.8981674
27	0xbf7674d0	-0.9627199
28	0xbf511e14	-0.8168652
29	0xbf2a412d	-0.665057
30	0x3f83f265	1.0308348
31	0xbf5d5797	-0.86461776
32	0xbf619195	-0.88112766
33	0x3f99fa0e	1.2029436
34	0x3fa0be0e	1.2558
35	0x3fe2e73c	1.7726817
36	0x4057f6af	3.3744314
37	0x40192ff1	2.393551
38	0x3f8ab459	1.0836288
39	0xbf96efac	-1.1791892
40	0xbf2a4c9d	-0.6652315
41	0xbf2c76d3	-0.6736881
42	0x3f8fa8de	1.1223409
43	0xbf3c0c30	-0.73456097
44	0x3fa82414	1.313601
45	0x3f97493c	1.1819224
46	0xbf193a0f	-0.59854215
47	0xbf64843d	-0.8926428
48	0x3f8d14ee	1.1022012
49	0x40305a89	2.7555258
50	0xbf61f9bb	-0.88271683
51	0x3fd608ba	1.6721413
52	0xbf93a140	-1.1533585
53	0xbf87e0a4	-1.061543
54	0x3f80adf3	1.0053085
55	0x3fa02053	1.2509865
56	0xbf03e1c7	-0.51516384
57	0x3f90494f	1.1272372
58	0xc0031c05	-2.0485852
59	0xbf6e9ca1	-0.93207747
60	0xbf4bb4c8	-0.79572725
61	0xbf1d2d7b	-0.6139752
62	0x3f49c454	0.788152
63	0xbf680bbf	-0.90642923
64	0xbf623d85	-0.8837512
65	0x3f94e25e	1.1631582
66	0x3f8f4984	1.119431
67	0x3f847d2a	1.0350697
68	0x401dcdd0	2.4656868
69	0x3fb5d99c	1.4207034
70	0x3f7f845b	0.99811333
71	0xbef9dc51	-0.488009
72	0xbf51a42a	-0.8189112
73	0xbf5c1633	-0.85971373
74	0x3f85e7d7	1.0461377
75	0xbf010aa7	-0.5040688
76	0x3f9d6598	1.2296629
77	0x3f60f65f	0.8787593
78	0xbf6e4d5e	-0.930868
79	0xbf457c55	-0.7714284
80	0x3f6b7581	0.9197617
81	0x408260b1	4.074303
82	0xbf265111	-0.6496745
83	0x3f6b949e	0.92023647
84	0xbf43b29a	-0.764444
85	0xbf492f75	-0.7858804
86	0x3f998056	1.199229
87	0x3f6459da	0.891996
88	0xbf4fa655	-0.8111318
89	0x3f8af634	1.0856385
90	0xc05b1458	-3.4231167
91	0xbf43acf4	-0.7643578
92	0xbf6dd484	-0.929024
93	0xbf2c0968	-0.6720185
94	0x3f961af2	1.1726973
95	0xbf4bec73	-0.7965767
96	0xbf6b685c	-0.91956115
97	0x3f6afbb3	0.9179031
98	0x3f9efe8a	1.2421429
99	0x3fb1a26b	1.3877691
100	0x40292a12	2.6431928
101	0x400c9a79	2.1969283
102	0x3fa4f1ef	1.2886332
103	0xbf6960e8	-0.9116349
104	0xbf18675a	-0.595327
105	0xbf5be7ea	-0.8590075
106	0x3f8686af	1.0509852
107	0xbee49cc2	-0.44650847
108	0x3fa8dace	1.3191774
109	0x3f9ad4f0	1.2096233
110	0xbf60dac8	-0.87833834
111	0xbf88d9a3	-1.0691417
112	0x3f9b54c4	1.2135243
113	0x403f4299	2.9884398
114	0xbf6cd559	-0.9251304
115	0x3feca302	1.8487246
116	0xbf781ea9	-0.96921784
117	0xbf87f840	-1.0622635
118	0x3f9353fd	1.1510006
119	0x3f814e0c	1.0101943
120	0xbf3d7233	-0.7400238
121	0x3f6cab74	0.92449117
122	0xc03d5826	-2.9585052
123	0xbf37f0b1	-0.7185164
124	0xbf4df3bc	-0.80450034
125	0xbed25e3e	-0.41087526
126	0x3fa1104b	1.2583097
127	0xbf852fec	-1.040525
128	0xbf018db2	-0.50606835
129	0x3fa4595c	1.283977
130	0x3f9739a4	1.1814466
131	0x3f84bc84	1.037003
132	0x404f672b	3.2406719
133	0x3fc4281f	1.5324744
134	0x3f6b9aae	0.920329
135	0xbf42659f	-0.7593631
136	0xbf347cae	-0.70502746
137	0xbf4e2544	-0.8052561
138	0x3f8762d9	1.0577041
139	0xbf677198	-0.90407705
140	0x3f9380cc	1.1523681
141	0x3f6277ca	0.88464034
142	0xbebc63f3	-0.36795005
143	0xbf4dc249	-0.8037458
144	0x3f75fc51	0.9608813
145	0x40711ba5	3.7673123
146	0xbf81d23f	-1.0142287
147	0x3f7e4b49	0.99333626
148	0xbf477080	-0.77906036
149	0xbf29d48e	-0.6633996
150	0x3f5c6ab8	0.8610034
151	0x3f8b734f	1.0894564
152	0xbf359ca7	-0.7094216
153	0x3f9b7f70	1.2148266
154	0xc01d09ee	-2.453731
155	0xbf57fcf9	-0.8437038
156	0xbf2d829d	-0.67777425
157	0xbf70cf29	-0.940661
158	0x3f3db421	0.7410298
159	0xbf3055c4	-0.6888087

action_head.bias f4 [5]
0	0x3dfff5e2	0.1249807
1	0x3d8af39b	0.06784745
2	0xbe1f6de5	-0.15569265
3	0x3d8c1989	0.06840808
4	0xbde857f3	-0.113449
